…
OS Platform and Distribution (e.g., Linux Ubuntu 16.04): Linux Ubuntu 16.04
TensorFlow installed from (source or binary): I installed tensorflow via pip install (Python 3)
TensorFlow version (use command below): 1.4.0
Python version: 3
Bazel version (if compiling from source):
GCC/Compiler version (if compiling from source):
CUDA/cuDNN version: 8.0/6
GPU model and memory: NVIDIA Tesla k80 totalMemory: 11.17GiB freeMemory: 11.09GiB
Exact command to reproduce: See below:

Below is the log:

keep_dims is deprecated, use keepdims instead

Layer (type)                 Output Shape              Param #
input_1 (InputLayer)         (None, 7, 264)            0

reshape_1 (Reshape)          (None, 7, 264, 1)         0

conv2d_1 (Conv2D)            (None, 7, 264, 64)        16960

max_pooling2d_1 (MaxPooling2 (None, 7, 132, 64)        0

flatten_1 (Flatten)          (None, 59136)             0

dense_1 (Dense)              (None, 1024)              60556288

dropout_1 (Dropout)          (None, 1024)              0

dense_2 (Dense)              (None, 512)               524800

dropout_2 (Dropout)          (None, 512)               0

dense_3 (Dense)              (None, 88)                45144
Total params: 61,143,192
Trainable params: 61,143,192
Non-trainable params: 0

/home/hpnhxxwn/miniconda3/envs/carnd-term1/lib/python3.5/site-packages/keras/engine/training.py:2057: UserWarning: Using a generator with use_multiprocessing=True and multiple worker
s may duplicate your data. Please consider using thekeras.utils.Sequence class. UserWarning('Using a generator withuse_multiprocessing=True`'
…
