…
I'm having problem with running a model on CPU. I trained it on GPU and it works just great on GPU with no issues whatsoever yet when run on CPU it computes differently and quickly falls into returning just NaNs.
I used Keras to construct the model which looks like this:
____________________________________________________________________________________________________
Layer (type)                     Output Shape          Param #     Connected to                     
====================================================================================================
input (InputLayer)               (None, 500)           0                                            
____________________________________________________________________________________________________
embedding_1 (Embedding)          (None, 500, 60)       300000      input[0][0]                      
____________________________________________________________________________________________________
conv1d_1 (Conv1D)                (None, 500, 128)      7808        embedding_1[0][0]                
____________________________________________________________________________________________________
conv1d_2 (Conv1D)                (None, 500, 128)      15488       embedding_1[0][0]                
____________________________________________________________________________________________________
conv1d_3 (Conv1D)                (None, 500, 128)      23168       embedding_1[0][0]                
____________________________________________________________________________________________________
conv1d_4 (Conv1D)                (None, 500, 128)      30848       embedding_1[0][0]                
____________________________________________________________________________________________________
conv1d_5 (Conv1D)                (None, 500, 32)       9632        embedding_1[0][0]                
____________________________________________________________________________________________________
conv1d_6 (Conv1D)                (None, 500, 32)       11552       embedding_1[0][0]                
____________________________________________________________________________________________________
global_average_pooling1d_1 (Glob (None, 128)           0           conv1d_1[0][0]                   
____________________________________________________________________________________________________
global_average_pooling1d_2 (Glob (None, 128)           0           conv1d_2[0][0]                   
____________________________________________________________________________________________________
global_average_pooling1d_3 (Glob (None, 128)           0           conv1d_3[0][0]                   
____________________________________________________________________________________________________
global_average_pooling1d_4 (Glob (None, 128)           0           conv1d_4[0][0]                   
____________________________________________________________________________________________________
global_average_pooling1d_5 (Glob (None, 32)            0           conv1d_5[0][0]                   
____________________________________________________________________________________________________
global_average_pooling1d_6 (Glob (None, 32)            0           conv1d_6[0][0]                   
____________________________________________________________________________________________________
concatenate_1 (Concatenate)      (None, 576)           0           global_average_pooling1d_1[0][0] 
                                                                   global_average_pooling1d_2[0][0] 
                                                                   global_average_pooling1d_3[0][0] 
                                                                   global_average_pooling1d_4[0][0] 
                                                                   global_average_pooling1d_5[0][0] 
                                                                   global_average_pooling1d_6[0][0] 
____________________________________________________________________________________________________
dropout_1 (Dropout)              (None, 576)           0           concatenate_1[0][0]              
____________________________________________________________________________________________________
batch_normalization_1 (BatchNorm (None, 576)           2304        dropout_1[0][0]                  
____________________________________________________________________________________________________
dense_1 (Dense)                  (None, 300)           173100      batch_normalization_1[0][0]      
____________________________________________________________________________________________________
dropout_2 (Dropout)              (None, 300)           0           dense_1[0][0]                    
____________________________________________________________________________________________________
batch_normalization_2 (BatchNorm (None, 300)           1200        dropout_2[0][0]                  
____________________________________________________________________________________________________
dense_2 (Dense)                  (None, 24)            7224        batch_normalization_2[0][0]      
====================================================================================================
Total params: 582,324
Trainable params: 580,572
Non-trainable params: 1,752

I used following code to debug it:
from keras import backend as K
import numpy as np

inp = model.input                                           # input placeholder
outputs = [layer.output for layer in model.layers]          # all layer outputs
…
