optimize_for_inference - KeyError

System information

Have I written custom code (as opposed to using a stock example script provided in TensorFlow): yUP.
OS Platform and Distribution (e.g., Linux Ubuntu 16.04): Elementary OS 0.4 Loki
TensorFlow installed from (source or binary): pip install tensorflow
TensorFlow version (use command below): ('v1.3.0-rc2-20-g0787eee', '1.3.0')
Python version: 2.7.6
Bazel version (if compiling from source):
CUDA/cuDNN version: 8.5
GPU model and memory: NVIDIA GTX 1060 - 6GB
Exact command to reproduce:

Describe the problem
Experiencing a strange KeyError whilst attempting to optimize graph.
Traceback (most recent call last):
  File "/home/keo7/Projects/AgriDoctorAlpha/model/keras/main.py", line 126, in <module>
    export_model(tf.train.Saver(), model, ["input_1"], "dense_3/kernel")
  File "/home/keo7/Projects/AgriDoctorAlpha/model/keras/main.py", line 115, in export_model
    tf.float32.as_datatype_enum)
  File "/home/keo7/.virtualenvs/deeplearning/local/lib/python2.7/site-packages/tensorflow/python/tools/optimize_for_inference_lib.py", line 109, in optimize_for_inference
    placeholder_type_enum)
  File "/home/keo7/.virtualenvs/deeplearning/local/lib/python2.7/site-packages/tensorflow/python/tools/strip_unused_lib.py", line 83, in strip_unused
    raise KeyError("The following input nodes were not found: %s\n" % not_found)
KeyError: "The following input nodes were not found: set(['input_1'])\n"

Source code / logs
output_graph_def = optimize_for_inference_lib.optimize_for_inference(
            input_graph_def, ["input_1"], ["dense_3/kernel"]
            tf.float32.as_datatype_enum)
Graph:
node {
  name: "input_1"
  op: "Placeholder"
  attr {
    key: "dtype"
    value {
      type: DT_FLOAT
    }
  }
  attr {
    key: "shape"
    value {
      shape {
        dim {
          size: -1
        }
        dim {
          size: 48
        }
        dim {
          size: 48
        }
        dim {
          size: 3
        }
      }
    }
  }
}
node {
  name: "block1_conv1/random_uniform/shape"
  op: "Const"
  attr {
    key: "dtype"
    value {
      type: DT_INT32
    }
  }
  attr {
    key: "value"
    value {
      tensor {
        dtype: DT_INT32
        tensor_shape {
          dim {
            size: 4
          }
        }
        tensor_content: "\003\000\000\000\003\000\000\000\003\000\000\000@\000\000\000"
      }
    }
  }
}
node {
  name: "block1_conv1/random_uniform/min"
  op: "Const"
  attr {
    key: "dtype"
    value {
      type: DT_FLOAT
    }
  }
  attr {
    key: "value"
    value {
      tensor {
        dtype: DT_FLOAT
        tensor_shape {
        }
        float_val: -0.0997509360313
      }
    }
  }
}
node {
  name: "block1_conv1/random_uniform/max"
  op: "Const"
  attr {
    key: "dtype"
    value {
      type: DT_FLOAT
    }
  }
  attr {
    key: "value"
    value {
      tensor {
        dtype: DT_FLOAT
        tensor_shape {
        }
        float_val: 0.0997509360313
      }
    }
  }
}
node {
  name: "block1_conv1/random_uniform/RandomUniform"
  op: "RandomUniform"
  input: "block1_conv1/random_uniform/shape"
  attr {
    key: "T"
    value {
      type: DT_INT32
    }
  }
  attr {
    key: "dtype"
    value {
      type: DT_FLOAT
    }
  }
  attr {
    key: "seed"
    value {
      i: 87654321
    }
  }
  attr {
    key: "seed2"
    value {
      i: 4107740
    }
  }
}
node {
  name: "block1_conv1/random_uniform/sub"
  op: "Sub"
  input: "block1_conv1/random_uniform/max"
  input: "block1_conv1/random_uniform/min"
  attr {
    key: "T"
    value {
      type: DT_FLOAT
    }
  }
}
node {
  name: "block1_conv1/random_uniform/mul"
  op: "Mul"
  input: "block1_conv1/random_uniform/RandomUniform"
  input: "block1_conv1/random_uniform/sub"
  attr {
    key: "T"
    value {
      type: DT_FLOAT
    }
  }
}
node {
  name: "block1_conv1/random_uniform"
  op: "Add"
  input: "block1_conv1/random_uniform/mul"
  input: "block1_conv1/random_uniform/min"
  attr {
    key: "T"
    value {
      type: DT_FLOAT
    }
  }
}
node {
  name: "block1_conv1/kernel"
  op: "VariableV2"
  attr {
    key: "container"
    value {
      s: ""
    }
  }
  attr {
    key: "dtype"
    value {
      type: DT_FLOAT
    }
  }
  attr {
    key: "shape"
    value {
      shape {
        dim {
          size: 3
        }
        dim {
          size: 3
        }
        dim {
          size: 3
        }
        dim {
          size: 64
        }
      }
    }
  }
  attr {
    key: "shared_name"
    value {
      s: ""
    }
  }
}
node {
  name: "block1_conv1/kernel/Assign"
  op: "Assign"
  input: "block1_conv1/kernel"
  input: "block1_conv1/random_uniform"
  attr {
    key: "T"
    value {
      type: DT_FLOAT
    }
  }
  attr {
    key: "_class"
    value {
      list {
        s: "loc:@block1_conv1/kernel"
      }
    }
  }
  attr {
    key: "use_locking"
    value {
      b: true
    }
  }
  attr {
    key: "validate_shape"
    value {
      b: true
    }
  }
}
node {
  name: "block1_conv1/kernel/read"
  op: "Identity"
  input: "block1_conv1/kernel"
  attr {
    key: "T"
    value {
      type: DT_FLOAT
    }
  }
  attr {
    key: "_class"
    value {
      list {
        s: "loc:@block1_conv1/kernel"
      }
    }
  }
}
node {
  name: "block1_conv1/Const"
  op: "Const"
  attr {
    key: "dtype"
    value {
      type: DT_FLOAT
    }
  }
  attr {
    key: "value"
    value {
      tensor {
        dtype: DT_FLOAT
        tensor_shape {
          dim {
            size: 64
          }
        }
        float_val: 0.0
      }
    }
  }
}
node {
  name: "block1_conv1/bias"
  op: "VariableV2"
  attr {
    key: "container"
    value {
      s: ""
    }
  }
  attr {
    key: "dtype"
    value {
      type: DT_FLOAT
    }
  }
  attr {
    key: "shape"
    value {
      shape {
        dim {
          size: 64
        }
      }
    }
  }
  attr {
    key: "shared_name"
    value {
      s: ""
    }
  }
}
node {
  name: "block1_conv1/bias/Assign"
  op: "Assign"
  input: "block1_conv1/bias"
  input: "block1_conv1/Const"
  attr {
    key: "T"
    value {
      type: DT_FLOAT
    }
  }
  attr {
    key: "_class"
    value {
      list {
        s: "loc:@block1_conv1/bias"
      }
    }
  }
  attr {
    key: "use_locking"
    value {
      b: true
    }
  }
  attr {
    key: "validate_shape"
    value {
      b: true
    }
  }
}
node {
  name: "block1_conv1/bias/read"
  op: "Identity"
  input: "block1_conv1/bias"
  attr {
    key: "T"
    value {
      type: DT_FLOAT
    }
  }
  attr {
    key: "_class"
    value {
      list {
        s: "loc:@block1_conv1/bias"
      }
    }
  }
}
node {
  name: "block1_conv1/convolution/Shape"
  op: "Const"
  attr {
    key: "dtype"
    value {
      type: DT_INT32
    }
  }
  attr {
    key: "value"
    value {
      tensor {
        dtype: DT_INT32
        tensor_shape {
          dim {
            size: 4
          }
        }
        tensor_content: "\003\000\000\000\003\000\000\000\003\000\000\000@\000\000\000"
      }
    }
  }
}
node {
  name: "block1_conv1/convolution/dilation_rate"
  op: "Const"
  attr {
    key: "dtype"
    value {
      type: DT_INT32
    }
  }
  attr {
    key: "value"
    value {
      tensor {
        dtype: DT_INT32
        tensor_shape {
          dim {
            size: 2
          }
        }
        tensor_content: "\001\000\000\000\001\000\000\000"
      }
    }
  }
}
node {
  name: "block1_conv1/convolution"
  op: "Conv2D"
  input: "input_1"
  input: "block1_conv1/kernel/read"
  attr {
    key: "T"
    value {
      type: DT_FLOAT
    }
  }
  attr {
    key: "data_format"
    value {
      s: "NHWC"
    }
  }
  attr {
    key: "padding"
    value {
      s: "SAME"
    }
  }
  attr {
    key: "strides"
    value {
      list {
        i: 1
        i: 1
        i: 1
        i: 1
      }
    }
  }
  attr {
    key: "use_cudnn_on_gpu"
    value {
      b: true
    }
  }
}
node {
  name: "block1_conv1/BiasAdd"
  op: "BiasAdd"
  input: "block1_conv1/convolution"
  input: "block1_conv1/bias/read"
  attr {
    key: "T"
    value {
      type: DT_FLOAT
    }
  }
  attr {
    key: "data_format"
    value {
      s: "NHWC"
    }
  }
}
node {
  name: "block1_conv1/Relu"
  op: "Relu"
  input: "block1_conv1/BiasAdd"
  attr {
    key: "T"
    value {
      type: DT_FLOAT
    }
  }
}
node {
  name: "block1_conv2/random_uniform/shape"
  op: "Const"
  attr {
    key: "dtype"
    value {
      type: DT_INT32
    }
  }
  attr {
    key: "value"
    value {
      tensor {
        dtype: DT_INT32
        tensor_shape {
          dim {
            size: 4
          }
        }
        tensor_content: "\003\000\000\000\003\000\000\000@\000\000\000@\000\000\000"
      }
    }
  }
}
node {
  name: "block1_conv2/random_uniform/min"
  op: "Const"
  attr {
    key: "dtype"
    value {
      type: DT_FLOAT
    }
  }
  attr {
    key: "value"
    value {
      tensor {
        dtype: DT_FLOAT
        tensor_shape {
        }
        float_val: -0.0721687823534
      }
    }
  }
}
node {
  name: "block1_conv2/random_uniform/max"
  op: "Const"
  attr {
    key: "dtype"
    value {
      type: DT_FLOAT
    }
  }
  attr {
    key: "value"
    value {
      tensor {
        dtype: DT_FLOAT
        tensor_shape {
        }
        float_val: 0.0721687823534
      }
    }
  }
}
node {
  name: "block1_conv2/random_uniform/RandomUniform"
  op: "RandomUniform"
  input: "block1_conv2/random_uniform/shape"
  attr {
    key: "T"
    value {
      type: DT_INT32
    }
  }
  attr {
    key: "dtype"
    value {
      type: DT_FLOAT
    }
  }
  attr {
    key: "seed"
    value {
      i: 87654321
    }
  }
  attr {
    key: "seed2"
    value {
      i: 9992257
    }
  }
}
node {
  name: "block1_conv2/random_uniform/sub"
  op: "Sub"
  input: "block1_conv2/random_uniform/max"
  input: "block1_conv2/random_uniform/min"
  attr {
    key: "T"
    value {
      type: DT_FLOAT
    }
  }
}
node {
  name: "block1_conv2/random_uniform/mul"
  op: "Mul"
  input: "block1_conv2/random_uniform/RandomUniform"
  input: "block1_conv2/random_uniform/sub"
  attr {
    key: "T"
    value {
      type: DT_FLOAT
    }
  }
}
node {
  name: "block1_conv2/random_uniform"
  op: "Add"
  input: "block1_conv2/random_uniform/mul"
  input: "block1_conv2/random_uniform/min"
  attr {
    key: "T"
    value {
      type: DT_FLOAT
    }
  }
}
node {
  name: "block1_conv2/kernel"
  op: "VariableV2"
  attr {
    key: "container"
    value {
      s: ""
    }
  }
  attr {
    key: "dtype"
    value {
      type: DT_FLOAT
    }
  }
  attr {
    key: "shape"
    value {
      shape {
        dim {
          size: 3
        }
        dim {
          size: 3
        }
        dim {
          size: 64
        }
        dim {
          size: 64
        }
      }
    }
  }
  attr {
    key: "shared_name"
    value {
      s: ""
    }
  }
}
node {
  name: "block1_conv2/kernel/Assign"
  op: "Assign"
  input: "block1_conv2/kernel"
  input: "block1_conv2/random_uniform"
  attr {
    key: "T"
    value {
      type: DT_FLOAT
    }
  }
  attr {
    key: "_class"
    value {
      list {
        s: "loc:@block1_conv2/kernel"
      }
    }
  }
  attr {
    key: "use_locking"
    value {
      b: true
    }
  }
  attr {
    key: "validate_shape"
    value {
      b: true
    }
  }
}
node {
  name: "block1_conv2/kernel/read"
  op: "Identity"
  input: "block1_conv2/kernel"
  attr {
    key: "T"
    value {
      type: DT_FLOAT
    }
  }
  attr {
    key: "_class"
    value {
      list {
        s: "loc:@block1_conv2/kernel"
      }
    }
  }
}
node {
  name: "block1_conv2/Const"
  op: "Const"
  attr {
    key: "dtype"
    value {
      type: DT_FLOAT
    }
  }
  attr {
    key: "value"
    value {
      tensor {
        dtype: DT_FLOAT
        tensor_shape {
          dim {
            size: 64
          }
        }
        float_val: 0.0
      }
    }
  }
}
node {
  name: "block1_conv2/bias"
  op: "VariableV2"
  attr {
    key: "container"
    value {
      s: ""
    }
  }
  attr {
    key: "dtype"
    value {
      type: DT_FLOAT
    }
  }
  attr {
    key: "shape"
    value {
      shape {
        dim {
          size: 64
        }
      }
    }
  }
  attr {
    key: "shared_name"
    value {
      s: ""
    }
  }
}
node {
  name: "block1_conv2/bias/Assign"
  op: "Assign"
  input: "block1_conv2/bias"
  input: "block1_conv2/Const"
  attr {
    key: "T"
    value {
      type: DT_FLOAT
    }
  }
  attr {
    key: "_class"
    value {
      list {
        s: "loc:@block1_conv2/bias"
      }
    }
  }
  attr {
    key: "use_locking"
    value {
      b: true
    }
  }
  attr {
    key: "validate_shape"
    value {
      b: true
    }
  }
}
node {
  name: "block1_conv2/bias/read"
  op: "Identity"
  input: "block1_conv2/bias"
  attr {
    key: "T"
    value {
      type: DT_FLOAT
    }
  }
  attr {
    key: "_class"
    value {
      list {
        s: "loc:@block1_conv2/bias"
      }
    }
  }
}
node {
  name: "block1_conv2/convolution/Shape"
  op: "Const"
  attr {
    key: "dtype"
    value {
      type: DT_INT32
    }
  }
  attr {
    key: "value"
    value {
      tensor {
        dtype: DT_INT32
        tensor_shape {
          dim {
            size: 4
          }
        }
        tensor_content: "\003\000\000\000\003\000\000\000@\000\000\000@\000\000\000"
      }
    }
  }
}
node {
  name: "block1_conv2/convolution/dilation_rate"
  op: "Const"
  attr {
    key: "dtype"
    value {
      type: DT_INT32
    }
  }
  attr {
    key: "value"
    value {
      tensor {
        dtype: DT_INT32
        tensor_shape {
          dim {
            size: 2
          }
        }
        tensor_content: "\001\000\000\000\001\000\000\000"
      }
    }
  }
}
node {
  name: "block1_conv2/convolution"
  op: "Conv2D"
  input: "block1_conv1/Relu"
  input: "block1_conv2/kernel/read"
  attr {
    key: "T"
    value {
      type: DT_FLOAT
    }
  }
  attr {
    key: "data_format"
    value {
      s: "NHWC"
    }
  }
  attr {
    key: "padding"
    value {
      s: "SAME"
    }
  }
  attr {
    key: "strides"
    value {
      list {
        i: 1
        i: 1
        i: 1
        i: 1
      }
    }
  }
  attr {
    key: "use_cudnn_on_gpu"
    value {
      b: true
    }
  }
}
node {
  name: "block1_conv2/BiasAdd"
  op: "BiasAdd"
  input: "block1_conv2/convolution"
  input: "block1_conv2/bias/read"
  attr {
    key: "T"
    value {
      type: DT_FLOAT
    }
  }
  attr {
    key: "data_format"
    value {
      s: "NHWC"
    }
  }
}
node {
  name: "block1_conv2/Relu"
  op: "Relu"
  input: "block1_conv2/BiasAdd"
  attr {
    key: "T"
    value {
      type: DT_FLOAT
    }
  }
}
node {
  name: "block1_pool/MaxPool"
  op: "MaxPool"
  input: "block1_conv2/Relu"
  attr {
    key: "T"
    value {
      type: DT_FLOAT
    }
  }
  attr {
    key: "data_format"
    value {
      s: "NHWC"
    }
  }
  attr {
    key: "ksize"
    value {
      list {
        i: 1
        i: 2
        i: 2
        i: 1
      }
    }
  }
  attr {
    key: "padding"
    value {
      s: "VALID"
    }
  }
  attr {
    key: "strides"
    value {
      list {
        i: 1
        i: 2
        i: 2
        i: 1
      }
    }
  }
}
node {
  name: "block2_conv1/random_uniform/shape"
  op: "Const"
  attr {
    key: "dtype"
    value {
      type: DT_INT32
    }
  }
  attr {
    key: "value"
    value {
      tensor {
        dtype: DT_INT32
        tensor_shape {
          dim {
            size: 4
          }
        }
        tensor_content: "\003\000\000\000\003\000\000\000@\000\000\000\200\000\000\000"
      }
    }
  }
}
node {
  name: "block2_conv1/random_uniform/min"
  op: "Const"
  attr {
    key: "dtype"
    value {
      type: DT_FLOAT
    }
  }
  attr {
    key: "value"
    value {
      tensor {
        dtype: DT_FLOAT
        tensor_shape {
        }
        float_val: -0.0589255653322
      }
    }
  }
}
node {
  name: "block2_conv1/random_uniform/max"
  op: "Const"
  attr {
    key: "dtype"
    value {
      type: DT_FLOAT
    }
  }
  attr {
    key: "value"
    value {
      tensor {
        dtype: DT_FLOAT
        tensor_shape {
        }
        float_val: 0.0589255653322
      }
    }
  }
}
node {
  name: "block2_conv1/random_uniform/RandomUniform"
  op: "RandomUniform"
  input: "block2_conv1/random_uniform/shape"
  attr {
    key: "T"
    value {
      type: DT_INT32
    }
  }
  attr {
    key: "dtype"
    value {
      type: DT_FLOAT
    }
  }
  attr {
    key: "seed"
    value {
      i: 87654321
    }
  }
  attr {
    key: "seed2"
    value {
      i: 6910695
    }
  }
}
node {
  name: "block2_conv1/random_uniform/sub"
  op: "Sub"
  input: "block2_conv1/random_uniform/max"
  input: "block2_conv1/random_uniform/min"
  attr {
    key: "T"
    value {
      type: DT_FLOAT
    }
  }
}
node {
  name: "block2_conv1/random_uniform/mul"
  op: "Mul"
  input: "block2_conv1/random_uniform/RandomUniform"
  input: "block2_conv1/random_uniform/sub"
  attr {
    key: "T"
    value {
      type: DT_FLOAT
    }
  }
}
node {
  name: "block2_conv1/random_uniform"
  op: "Add"
  input: "block2_conv1/random_uniform/mul"
  input: "block2_conv1/random_uniform/min"
  attr {
    key: "T"
    value {
      type: DT_FLOAT
    }
  }
}
node {
  name: "block2_conv1/kernel"
  op: "VariableV2"
  attr {
    key: "container"
    value {
      s: ""
    }
  }
  attr {
    key: "dtype"
    value {
      type: DT_FLOAT
    }
  }
  attr {
    key: "shape"
    value {
      shape {
        dim {
          size: 3
        }
        dim {
          size: 3
        }
        dim {
          size: 64
        }
        dim {
          size: 128
        }
      }
    }
  }
  attr {
    key: "shared_name"
    value {
      s: ""
    }
  }
}
node {
  name: "block2_conv1/kernel/Assign"
  op: "Assign"
  input: "block2_conv1/kernel"
  input: "block2_conv1/random_uniform"
  attr {
    key: "T"
    value {
      type: DT_FLOAT
    }
  }
  attr {
    key: "_class"
    value {
      list {
        s: "loc:@block2_conv1/kernel"
      }
    }
  }
  attr {
    key: "use_locking"
    value {
      b: true
    }
  }
  attr {
    key: "validate_shape"
    value {
      b: true
    }
  }
}
node {
  name: "block2_conv1/kernel/read"
  op: "Identity"
  input: "block2_conv1/kernel"
  attr {
    key: "T"
    value {
      type: DT_FLOAT
    }
  }
  attr {
    key: "_class"
    value {
      list {
        s: "loc:@block2_conv1/kernel"
      }
    }
  }
}
node {
  name: "block2_conv1/Const"
  op: "Const"
  attr {
    key: "dtype"
    value {
      type: DT_FLOAT
    }
  }
  attr {
    key: "value"
    value {
      tensor {
        dtype: DT_FLOAT
        tensor_shape {
          dim {
            size: 128
          }
        }
        float_val: 0.0
      }
    }
  }
}
node {
  name: "block2_conv1/bias"
  op: "VariableV2"
  attr {
    key: "container"
    value {
      s: ""
    }
  }
  attr {
    key: "dtype"
    value {
      type: DT_FLOAT
    }
  }
  attr {
    key: "shape"
    value {
      shape {
        dim {
          size: 128
        }
      }
    }
  }
  attr {
    key: "shared_name"
    value {
      s: ""
    }
  }
}
node {
  name: "block2_conv1/bias/Assign"
  op: "Assign"
  input: "block2_conv1/bias"
  input: "block2_conv1/Const"
  attr {
    key: "T"
    value {
      type: DT_FLOAT
    }
  }
  attr {
    key: "_class"
    value {
      list {
        s: "loc:@block2_conv1/bias"
      }
    }
  }
  attr {
    key: "use_locking"
    value {
      b: true
    }
  }
  attr {
    key: "validate_shape"
    value {
      b: true
    }
  }
}
node {
  name: "block2_conv1/bias/read"
  op: "Identity"
  input: "block2_conv1/bias"
  attr {
    key: "T"
    value {
      type: DT_FLOAT
    }
  }
  attr {
    key: "_class"
    value {
      list {
        s: "loc:@block2_conv1/bias"
      }
    }
  }
}
node {
  name: "block2_conv1/convolution/Shape"
  op: "Const"
  attr {
    key: "dtype"
    value {
      type: DT_INT32
    }
  }
  attr {
    key: "value"
    value {
      tensor {
        dtype: DT_INT32
        tensor_shape {
          dim {
            size: 4
          }
        }
        tensor_content: "\003\000\000\000\003\000\000\000@\000\000\000\200\000\000\000"
      }
    }
  }
}
node {
  name: "block2_conv1/convolution/dilation_rate"
  op: "Const"
  attr {
    key: "dtype"
    value {
      type: DT_INT32
    }
  }
  attr {
    key: "value"
    value {
      tensor {
        dtype: DT_INT32
        tensor_shape {
          dim {
            size: 2
          }
        }
        tensor_content: "\001\000\000\000\001\000\000\000"
      }
    }
  }
}
node {
  name: "block2_conv1/convolution"
  op: "Conv2D"
  input: "block1_pool/MaxPool"
  input: "block2_conv1/kernel/read"
  attr {
    key: "T"
    value {
      type: DT_FLOAT
    }
  }
  attr {
    key: "data_format"
    value {
      s: "NHWC"
    }
  }
  attr {
    key: "padding"
    value {
      s: "SAME"
    }
  }
  attr {
    key: "strides"
    value {
      list {
        i: 1
        i: 1
        i: 1
        i: 1
      }
    }
  }
  attr {
    key: "use_cudnn_on_gpu"
    value {
      b: true
    }
  }
}
node {
  name: "block2_conv1/BiasAdd"
  op: "BiasAdd"
  input: "block2_conv1/convolution"
  input: "block2_conv1/bias/read"
  attr {
    key: "T"
    value {
      type: DT_FLOAT
    }
  }
  attr {
    key: "data_format"
    value {
      s: "NHWC"
    }
  }
}
node {
  name: "block2_conv1/Relu"
  op: "Relu"
  input: "block2_conv1/BiasAdd"
  attr {
    key: "T"
    value {
      type: DT_FLOAT
    }
  }
}
node {
  name: "block2_conv2/random_uniform/shape"
  op: "Const"
  attr {
    key: "dtype"
    value {
      type: DT_INT32
    }
  }
  attr {
    key: "value"
    value {
      tensor {
        dtype: DT_INT32
        tensor_shape {
          dim {
            size: 4
          }
        }
        tensor_content: "\003\000\000\000\003\000\000\000\200\000\000\000\200\000\000\000"
      }
    }
  }
}
node {
  name: "block2_conv2/random_uniform/min"
  op: "Const"
  attr {
    key: "dtype"
    value {
      type: DT_FLOAT
    }
  }
  attr {
    key: "value"
    value {
      tensor {
        dtype: DT_FLOAT
        tensor_shape {
        }
        float_val: -0.0510310381651
      }
    }
  }
}
node {
  name: "block2_conv2/random_uniform/max"
  op: "Const"
  attr {
    key: "dtype"
    value {
      type: DT_FLOAT
    }
  }
  attr {
    key: "value"
    value {
      tensor {
        dtype: DT_FLOAT
        tensor_shape {
        }
        float_val: 0.0510310381651
      }
    }
  }
}
node {
  name: "block2_conv2/random_uniform/RandomUniform"
  op: "RandomUniform"
  input: "block2_conv2/random_uniform/shape"
  attr {
    key: "T"
    value {
      type: DT_INT32
    }
  }
  attr {
    key: "dtype"
    value {
      type: DT_FLOAT
    }
  }
  attr {
    key: "seed"
    value {
      i: 87654321
    }
  }
  attr {
    key: "seed2"
    value {
      i: 7708517
    }
  }
}
node {
  name: "block2_conv2/random_uniform/sub"
  op: "Sub"
  input: "block2_conv2/random_uniform/max"
  input: "block2_conv2/random_uniform/min"
  attr {
    key: "T"
    value {
      type: DT_FLOAT
    }
  }
}
node {
  name: "block2_conv2/random_uniform/mul"
  op: "Mul"
  input: "block2_conv2/random_uniform/RandomUniform"
  input: "block2_conv2/random_uniform/sub"
  attr {
    key: "T"
    value {
      type: DT_FLOAT
    }
  }
}
node {
  name: "block2_conv2/random_uniform"
  op: "Add"
  input: "block2_conv2/random_uniform/mul"
  input: "block2_conv2/random_uniform/min"
  attr {
    key: "T"
    value {
      type: DT_FLOAT
    }
  }
}
node {
  name: "block2_conv2/kernel"
  op: "VariableV2"
  attr {
    key: "container"
    value {
      s: ""
    }
  }
  attr {
    key: "dtype"
    value {
      type: DT_FLOAT
    }
  }
  attr {
    key: "shape"
    value {
      shape {
        dim {
          size: 3
        }
        dim {
          size: 3
        }
        dim {
          size: 128
        }
        dim {
          size: 128
        }
      }
    }
  }
  attr {
    key: "shared_name"
    value {
      s: ""
    }
  }
}
node {
  name: "block2_conv2/kernel/Assign"
  op: "Assign"
  input: "block2_conv2/kernel"
  input: "block2_conv2/random_uniform"
  attr {
    key: "T"
    value {
      type: DT_FLOAT
    }
  }
  attr {
    key: "_class"
    value {
      list {
        s: "loc:@block2_conv2/kernel"
      }
    }
  }
  attr {
    key: "use_locking"
    value {
      b: true
    }
  }
  attr {
    key: "validate_shape"
    value {
      b: true
    }
  }
}
node {
  name: "block2_conv2/kernel/read"
  op: "Identity"
  input: "block2_conv2/kernel"
  attr {
    key: "T"
    value {
      type: DT_FLOAT
    }
  }
  attr {
    key: "_class"
    value {
      list {
        s: "loc:@block2_conv2/kernel"
      }
    }
  }
}
node {
  name: "block2_conv2/Const"
  op: "Const"
  attr {
    key: "dtype"
    value {
      type: DT_FLOAT
    }
  }
  attr {
    key: "value"
    value {
      tensor {
        dtype: DT_FLOAT
        tensor_shape {
          dim {
            size: 128
          }
        }
        float_val: 0.0
      }
    }
  }
}
node {
  name: "block2_conv2/bias"
  op: "VariableV2"
  attr {
    key: "container"
    value {
      s: ""
    }
  }
  attr {
    key: "dtype"
    value {
      type: DT_FLOAT
    }
  }
  attr {
    key: "shape"
    value {
      shape {
        dim {
          size: 128
        }
      }
    }
  }
  attr {
    key: "shared_name"
    value {
      s: ""
    }
  }
}
node {
  name: "block2_conv2/bias/Assign"
  op: "Assign"
  input: "block2_conv2/bias"
  input: "block2_conv2/Const"
  attr {
    key: "T"
    value {
      type: DT_FLOAT
    }
  }
  attr {
    key: "_class"
    value {
      list {
        s: "loc:@block2_conv2/bias"
      }
    }
  }
  attr {
    key: "use_locking"
    value {
      b: true
    }
  }
  attr {
    key: "validate_shape"
    value {
      b: true
    }
  }
}
node {
  name: "block2_conv2/bias/read"
  op: "Identity"
  input: "block2_conv2/bias"
  attr {
    key: "T"
    value {
      type: DT_FLOAT
    }
  }
  attr {
    key: "_class"
    value {
      list {
        s: "loc:@block2_conv2/bias"
      }
    }
  }
}
node {
  name: "block2_conv2/convolution/Shape"
  op: "Const"
  attr {
    key: "dtype"
    value {
      type: DT_INT32
    }
  }
  attr {
    key: "value"
    value {
      tensor {
        dtype: DT_INT32
        tensor_shape {
          dim {
            size: 4
          }
        }
        tensor_content: "\003\000\000\000\003\000\000\000\200\000\000\000\200\000\000\000"
      }
    }
  }
}
node {
  name: "block2_conv2/convolution/dilation_rate"
  op: "Const"
  attr {
    key: "dtype"
    value {
      type: DT_INT32
    }
  }
  attr {
    key: "value"
    value {
      tensor {
        dtype: DT_INT32
        tensor_shape {
          dim {
            size: 2
          }
        }
        tensor_content: "\001\000\000\000\001\000\000\000"
      }
    }
  }
}
node {
  name: "block2_conv2/convolution"
  op: "Conv2D"
  input: "block2_conv1/Relu"
  input: "block2_conv2/kernel/read"
  attr {
    key: "T"
    value {
      type: DT_FLOAT
    }
  }
  attr {
    key: "data_format"
    value {
      s: "NHWC"
    }
  }
  attr {
    key: "padding"
    value {
      s: "SAME"
    }
  }
  attr {
    key: "strides"
    value {
      list {
        i: 1
        i: 1
        i: 1
        i: 1
      }
    }
  }
  attr {
    key: "use_cudnn_on_gpu"
    value {
      b: true
    }
  }
}
node {
  name: "block2_conv2/BiasAdd"
  op: "BiasAdd"
  input: "block2_conv2/convolution"
  input: "block2_conv2/bias/read"
  attr {
    key: "T"
    value {
      type: DT_FLOAT
    }
  }
  attr {
    key: "data_format"
    value {
      s: "NHWC"
    }
  }
}
node {
  name: "block2_conv2/Relu"
  op: "Relu"
  input: "block2_conv2/BiasAdd"
  attr {
    key: "T"
    value {
      type: DT_FLOAT
    }
  }
}
node {
  name: "block2_pool/MaxPool"
  op: "MaxPool"
  input: "block2_conv2/Relu"
  attr {
    key: "T"
    value {
      type: DT_FLOAT
    }
  }
  attr {
    key: "data_format"
    value {
      s: "NHWC"
    }
  }
  attr {
    key: "ksize"
    value {
      list {
        i: 1
        i: 2
        i: 2
        i: 1
      }
    }
  }
  attr {
    key: "padding"
    value {
      s: "VALID"
    }
  }
  attr {
    key: "strides"
    value {
      list {
        i: 1
        i: 2
        i: 2
        i: 1
      }
    }
  }
}
node {
  name: "block3_conv1/random_uniform/shape"
  op: "Const"
  attr {
    key: "dtype"
    value {
      type: DT_INT32
    }
  }
  attr {
    key: "value"
    value {
      tensor {
        dtype: DT_INT32
        tensor_shape {
          dim {
            size: 4
          }
        }
        tensor_content: "\003\000\000\000\003\000\000\000\200\000\000\000\000\001\000\000"
      }
    }
  }
}
node {
  name: "block3_conv1/random_uniform/min"
  op: "Const"
  attr {
    key: "dtype"
    value {
      type: DT_FLOAT
    }
  }
  attr {
    key: "value"
    value {
      tensor {
        dtype: DT_FLOAT
        tensor_shape {
        }
        float_val: -0.0416666679084
      }
    }
  }
}
node {
  name: "block3_conv1/random_uniform/max"
  op: "Const"
  attr {
    key: "dtype"
    value {
      type: DT_FLOAT
    }
  }
  attr {
    key: "value"
    value {
      tensor {
        dtype: DT_FLOAT
        tensor_shape {
        }
        float_val: 0.0416666679084
      }
    }
  }
}
node {
  name: "block3_conv1/random_uniform/RandomUniform"
  op: "RandomUniform"
  input: "block3_conv1/random_uniform/shape"
  attr {
    key: "T"
    value {
      type: DT_INT32
    }
  }
  attr {
    key: "dtype"
    value {
      type: DT_FLOAT
    }
  }
  attr {
    key: "seed"
    value {
      i: 87654321
    }
  }
  attr {
    key: "seed2"
    value {
      i: 8232814
    }
  }
}
node {
  name: "block3_conv1/random_uniform/sub"
  op: "Sub"
  input: "block3_conv1/random_uniform/max"
  input: "block3_conv1/random_uniform/min"
  attr {
    key: "T"
    value {
      type: DT_FLOAT
    }
  }
}
node {
  name: "block3_conv1/random_uniform/mul"
  op: "Mul"
  input: "block3_conv1/random_uniform/RandomUniform"
  input: "block3_conv1/random_uniform/sub"
  attr {
    key: "T"
    value {
      type: DT_FLOAT
    }
  }
}
node {
  name: "block3_conv1/random_uniform"
  op: "Add"
  input: "block3_conv1/random_uniform/mul"
  input: "block3_conv1/random_uniform/min"
  attr {
    key: "T"
    value {
      type: DT_FLOAT
    }
  }
}
node {
  name: "block3_conv1/kernel"
  op: "VariableV2"
  attr {
    key: "container"
    value {
      s: ""
    }
  }
  attr {
    key: "dtype"
    value {
      type: DT_FLOAT
    }
  }
  attr {
    key: "shape"
    value {
      shape {
        dim {
          size: 3
        }
        dim {
          size: 3
        }
        dim {
          size: 128
        }
        dim {
          size: 256
        }
      }
    }
  }
  attr {
    key: "shared_name"
    value {
      s: ""
    }
  }
}
node {
  name: "block3_conv1/kernel/Assign"
  op: "Assign"
  input: "block3_conv1/kernel"
  input: "block3_conv1/random_uniform"
  attr {
    key: "T"
    value {
      type: DT_FLOAT
    }
  }
  attr {
    key: "_class"
    value {
      list {
        s: "loc:@block3_conv1/kernel"
      }
    }
  }
  attr {
    key: "use_locking"
    value {
      b: true
    }
  }
  attr {
    key: "validate_shape"
    value {
      b: true
    }
  }
}
node {
  name: "block3_conv1/kernel/read"
  op: "Identity"
  input: "block3_conv1/kernel"
  attr {
    key: "T"
    value {
      type: DT_FLOAT
    }
  }
  attr {
    key: "_class"
    value {
      list {
        s: "loc:@block3_conv1/kernel"
      }
    }
  }
}
node {
  name: "block3_conv1/Const"
  op: "Const"
  attr {
    key: "dtype"
    value {
      type: DT_FLOAT
    }
  }
  attr {
    key: "value"
    value {
      tensor {
        dtype: DT_FLOAT
        tensor_shape {
          dim {
            size: 256
          }
        }
        float_val: 0.0
      }
    }
  }
}
node {
  name: "block3_conv1/bias"
  op: "VariableV2"
  attr {
    key: "container"
    value {
      s: ""
    }
  }
  attr {
    key: "dtype"
    value {
      type: DT_FLOAT
    }
  }
  attr {
    key: "shape"
    value {
      shape {
        dim {
          size: 256
        }
      }
    }
  }
  attr {
    key: "shared_name"
    value {
      s: ""
    }
  }
}
node {
  name: "block3_conv1/bias/Assign"
  op: "Assign"
  input: "block3_conv1/bias"
  input: "block3_conv1/Const"
  attr {
    key: "T"
    value {
      type: DT_FLOAT
    }
  }
  attr {
    key: "_class"
    value {
      list {
        s: "loc:@block3_conv1/bias"
      }
    }
  }
  attr {
    key: "use_locking"
    value {
      b: true
    }
  }
  attr {
    key: "validate_shape"
    value {
      b: true
    }
  }
}
node {
  name: "block3_conv1/bias/read"
  op: "Identity"
  input: "block3_conv1/bias"
  attr {
    key: "T"
    value {
      type: DT_FLOAT
    }
  }
  attr {
    key: "_class"
    value {
      list {
        s: "loc:@block3_conv1/bias"
      }
    }
  }
}
node {
  name: "block3_conv1/convolution/Shape"
  op: "Const"
  attr {
    key: "dtype"
    value {
      type: DT_INT32
    }
  }
  attr {
    key: "value"
    value {
      tensor {
        dtype: DT_INT32
        tensor_shape {
          dim {
            size: 4
          }
        }
        tensor_content: "\003\000\000\000\003\000\000\000\200\000\000\000\000\001\000\000"
      }
    }
  }
}
node {
  name: "block3_conv1/convolution/dilation_rate"
  op: "Const"
  attr {
    key: "dtype"
    value {
      type: DT_INT32
    }
  }
  attr {
    key: "value"
    value {
      tensor {
        dtype: DT_INT32
        tensor_shape {
          dim {
            size: 2
          }
        }
        tensor_content: "\001\000\000\000\001\000\000\000"
      }
    }
  }
}
node {
  name: "block3_conv1/convolution"
  op: "Conv2D"
  input: "block2_pool/MaxPool"
  input: "block3_conv1/kernel/read"
  attr {
    key: "T"
    value {
      type: DT_FLOAT
    }
  }
  attr {
    key: "data_format"
    value {
      s: "NHWC"
    }
  }
  attr {
    key: "padding"
    value {
      s: "SAME"
    }
  }
  attr {
    key: "strides"
    value {
      list {
        i: 1
        i: 1
        i: 1
        i: 1
      }
    }
  }
  attr {
    key: "use_cudnn_on_gpu"
    value {
      b: true
    }
  }
}
node {
  name: "block3_conv1/BiasAdd"
  op: "BiasAdd"
  input: "block3_conv1/convolution"
  input: "block3_conv1/bias/read"
  attr {
    key: "T"
    value {
      type: DT_FLOAT
    }
  }
  attr {
    key: "data_format"
    value {
      s: "NHWC"
    }
  }
}
node {
  name: "block3_conv1/Relu"
  op: "Relu"
  input: "block3_conv1/BiasAdd"
  attr {
    key: "T"
    value {
      type: DT_FLOAT
    }
  }
}
node {
  name: "block3_conv2/random_uniform/shape"
  op: "Const"
  attr {
    key: "dtype"
    value {
      type: DT_INT32
    }
  }
  attr {
    key: "value"
    value {
      tensor {
        dtype: DT_INT32
        tensor_shape {
          dim {
            size: 4
          }
        }
        tensor_content: "\003\000\000\000\003\000\000\000\000\001\000\000\000\001\000\000"
      }
    }
  }
}
node {
  name: "block3_conv2/random_uniform/min"
  op: "Const"
  attr {
    key: "dtype"
    value {
      type: DT_FLOAT
    }
  }
  attr {
    key: "value"
    value {
      tensor {
        dtype: DT_FLOAT
        tensor_shape {
        }
        float_val: -0.0360843911767
      }
    }
  }
}
node {
  name: "block3_conv2/random_uniform/max"
  op: "Const"
  attr {
    key: "dtype"
    value {
      type: DT_FLOAT
    }
  }
  attr {
    key: "value"
    value {
      tensor {
        dtype: DT_FLOAT
        tensor_shape {
        }
        float_val: 0.0360843911767
      }
    }
  }
}
node {
  name: "block3_conv2/random_uniform/RandomUniform"
  op: "RandomUniform"
  input: "block3_conv2/random_uniform/shape"
  attr {
    key: "T"
    value {
      type: DT_INT32
    }
  }
  attr {
    key: "dtype"
    value {
      type: DT_FLOAT
    }
  }
  attr {
    key: "seed"
    value {
      i: 87654321
    }
  }
  attr {
    key: "seed2"
    value {
      i: 7964615
    }
  }
}
node {
  name: "block3_conv2/random_uniform/sub"
  op: "Sub"
  input: "block3_conv2/random_uniform/max"
  input: "block3_conv2/random_uniform/min"
  attr {
    key: "T"
    value {
      type: DT_FLOAT
    }
  }
}
node {
  name: "block3_conv2/random_uniform/mul"
  op: "Mul"
  input: "block3_conv2/random_uniform/RandomUniform"
  input: "block3_conv2/random_uniform/sub"
  attr {
    key: "T"
    value {
      type: DT_FLOAT
    }
  }
}
node {
  name: "block3_conv2/random_uniform"
  op: "Add"
  input: "block3_conv2/random_uniform/mul"
  input: "block3_conv2/random_uniform/min"
  attr {
    key: "T"
    value {
      type: DT_FLOAT
    }
  }
}
node {
  name: "block3_conv2/kernel"
  op: "VariableV2"
  attr {
    key: "container"
    value {
      s: ""
    }
  }
  attr {
    key: "dtype"
    value {
      type: DT_FLOAT
    }
  }
  attr {
    key: "shape"
    value {
      shape {
        dim {
          size: 3
        }
        dim {
          size: 3
        }
        dim {
          size: 256
        }
        dim {
          size: 256
        }
      }
    }
  }
  attr {
    key: "shared_name"
    value {
      s: ""
    }
  }
}
node {
  name: "block3_conv2/kernel/Assign"
  op: "Assign"
  input: "block3_conv2/kernel"
  input: "block3_conv2/random_uniform"
  attr {
    key: "T"
    value {
      type: DT_FLOAT
    }
  }
  attr {
    key: "_class"
    value {
      list {
        s: "loc:@block3_conv2/kernel"
      }
    }
  }
  attr {
    key: "use_locking"
    value {
      b: true
    }
  }
  attr {
    key: "validate_shape"
    value {
      b: true
    }
  }
}
node {
  name: "block3_conv2/kernel/read"
  op: "Identity"
  input: "block3_conv2/kernel"
  attr {
    key: "T"
    value {
      type: DT_FLOAT
    }
  }
  attr {
    key: "_class"
    value {
      list {
        s: "loc:@block3_conv2/kernel"
      }
    }
  }
}
node {
  name: "block3_conv2/Const"
  op: "Const"
  attr {
    key: "dtype"
    value {
      type: DT_FLOAT
    }
  }
  attr {
    key: "value"
    value {
      tensor {
        dtype: DT_FLOAT
        tensor_shape {
          dim {
            size: 256
          }
        }
        float_val: 0.0
      }
    }
  }
}
node {
  name: "block3_conv2/bias"
  op: "VariableV2"
  attr {
    key: "container"
    value {
      s: ""
    }
  }
  attr {
    key: "dtype"
    value {
      type: DT_FLOAT
    }
  }
  attr {
    key: "shape"
    value {
      shape {
        dim {
          size: 256
        }
      }
    }
  }
  attr {
    key: "shared_name"
    value {
      s: ""
    }
  }
}
node {
  name: "block3_conv2/bias/Assign"
  op: "Assign"
  input: "block3_conv2/bias"
  input: "block3_conv2/Const"
  attr {
    key: "T"
    value {
      type: DT_FLOAT
    }
  }
  attr {
    key: "_class"
    value {
      list {
        s: "loc:@block3_conv2/bias"
      }
    }
  }
  attr {
    key: "use_locking"
    value {
      b: true
    }
  }
  attr {
    key: "validate_shape"
    value {
      b: true
    }
  }
}
node {
  name: "block3_conv2/bias/read"
  op: "Identity"
  input: "block3_conv2/bias"
  attr {
    key: "T"
    value {
      type: DT_FLOAT
    }
  }
  attr {
    key: "_class"
    value {
      list {
        s: "loc:@block3_conv2/bias"
      }
    }
  }
}
node {
  name: "block3_conv2/convolution/Shape"
  op: "Const"
  attr {
    key: "dtype"
    value {
      type: DT_INT32
    }
  }
  attr {
    key: "value"
    value {
      tensor {
        dtype: DT_INT32
        tensor_shape {
          dim {
            size: 4
          }
        }
        tensor_content: "\003\000\000\000\003\000\000\000\000\001\000\000\000\001\000\000"
      }
    }
  }
}
node {
  name: "block3_conv2/convolution/dilation_rate"
  op: "Const"
  attr {
    key: "dtype"
    value {
      type: DT_INT32
    }
  }
  attr {
    key: "value"
    value {
      tensor {
        dtype: DT_INT32
        tensor_shape {
          dim {
            size: 2
          }
        }
        tensor_content: "\001\000\000\000\001\000\000\000"
      }
    }
  }
}
node {
  name: "block3_conv2/convolution"
  op: "Conv2D"
  input: "block3_conv1/Relu"
  input: "block3_conv2/kernel/read"
  attr {
    key: "T"
    value {
      type: DT_FLOAT
    }
  }
  attr {
    key: "data_format"
    value {
      s: "NHWC"
    }
  }
  attr {
    key: "padding"
    value {
      s: "SAME"
    }
  }
  attr {
    key: "strides"
    value {
      list {
        i: 1
        i: 1
        i: 1
        i: 1
      }
    }
  }
  attr {
    key: "use_cudnn_on_gpu"
    value {
      b: true
    }
  }
}
node {
  name: "block3_conv2/BiasAdd"
  op: "BiasAdd"
  input: "block3_conv2/convolution"
  input: "block3_conv2/bias/read"
  attr {
    key: "T"
    value {
      type: DT_FLOAT
    }
  }
  attr {
    key: "data_format"
    value {
      s: "NHWC"
    }
  }
}
node {
  name: "block3_conv2/Relu"
  op: "Relu"
  input: "block3_conv2/BiasAdd"
  attr {
    key: "T"
    value {
      type: DT_FLOAT
    }
  }
}
node {
  name: "block3_conv3/random_uniform/shape"
  op: "Const"
  attr {
    key: "dtype"
    value {
      type: DT_INT32
    }
  }
  attr {
    key: "value"
    value {
      tensor {
        dtype: DT_INT32
        tensor_shape {
          dim {
            size: 4
          }
        }
        tensor_content: "\003\000\000\000\003\000\000\000\000\001\000\000\000\001\000\000"
      }
    }
  }
}
node {
  name: "block3_conv3/random_uniform/min"
  op: "Const"
  attr {
    key: "dtype"
    value {
      type: DT_FLOAT
    }
  }
  attr {
    key: "value"
    value {
      tensor {
        dtype: DT_FLOAT
        tensor_shape {
        }
        float_val: -0.0360843911767
      }
    }
  }
}
node {
  name: "block3_conv3/random_uniform/max"
  op: "Const"
  attr {
    key: "dtype"
    value {
      type: DT_FLOAT
    }
  }
  attr {
    key: "value"
    value {
      tensor {
        dtype: DT_FLOAT
        tensor_shape {
        }
        float_val: 0.0360843911767
      }
    }
  }
}
node {
  name: "block3_conv3/random_uniform/RandomUniform"
  op: "RandomUniform"
  input: "block3_conv3/random_uniform/shape"
  attr {
    key: "T"
    value {
      type: DT_INT32
    }
  }
  attr {
    key: "dtype"
    value {
      type: DT_FLOAT
    }
  }
  attr {
    key: "seed"
    value {
      i: 87654321
    }
  }
  attr {
    key: "seed2"
    value {
      i: 6435287
    }
  }
}
node {
  name: "block3_conv3/random_uniform/sub"
  op: "Sub"
  input: "block3_conv3/random_uniform/max"
  input: "block3_conv3/random_uniform/min"
  attr {
    key: "T"
    value {
      type: DT_FLOAT
    }
  }
}
node {
  name: "block3_conv3/random_uniform/mul"
  op: "Mul"
  input: "block3_conv3/random_uniform/RandomUniform"
  input: "block3_conv3/random_uniform/sub"
  attr {
    key: "T"
    value {
      type: DT_FLOAT
    }
  }
}
node {
  name: "block3_conv3/random_uniform"
  op: "Add"
  input: "block3_conv3/random_uniform/mul"
  input: "block3_conv3/random_uniform/min"
  attr {
    key: "T"
    value {
      type: DT_FLOAT
    }
  }
}
node {
  name: "block3_conv3/kernel"
  op: "VariableV2"
  attr {
    key: "container"
    value {
      s: ""
    }
  }
  attr {
    key: "dtype"
    value {
      type: DT_FLOAT
    }
  }
  attr {
    key: "shape"
    value {
      shape {
        dim {
          size: 3
        }
        dim {
          size: 3
        }
        dim {
          size: 256
        }
        dim {
          size: 256
        }
      }
    }
  }
  attr {
    key: "shared_name"
    value {
      s: ""
    }
  }
}
node {
  name: "block3_conv3/kernel/Assign"
  op: "Assign"
  input: "block3_conv3/kernel"
  input: "block3_conv3/random_uniform"
  attr {
    key: "T"
    value {
      type: DT_FLOAT
    }
  }
  attr {
    key: "_class"
    value {
      list {
        s: "loc:@block3_conv3/kernel"
      }
    }
  }
  attr {
    key: "use_locking"
    value {
      b: true
    }
  }
  attr {
    key: "validate_shape"
    value {
      b: true
    }
  }
}
node {
  name: "block3_conv3/kernel/read"
  op: "Identity"
  input: "block3_conv3/kernel"
  attr {
    key: "T"
    value {
      type: DT_FLOAT
    }
  }
  attr {
    key: "_class"
    value {
      list {
        s: "loc:@block3_conv3/kernel"
      }
    }
  }
}
node {
  name: "block3_conv3/Const"
  op: "Const"
  attr {
    key: "dtype"
    value {
      type: DT_FLOAT
    }
  }
  attr {
    key: "value"
    value {
      tensor {
        dtype: DT_FLOAT
        tensor_shape {
          dim {
            size: 256
          }
        }
        float_val: 0.0
      }
    }
  }
}
node {
  name: "block3_conv3/bias"
  op: "VariableV2"
  attr {
    key: "container"
    value {
      s: ""
    }
  }
  attr {
    key: "dtype"
    value {
      type: DT_FLOAT
    }
  }
  attr {
    key: "shape"
    value {
      shape {
        dim {
          size: 256
        }
      }
    }
  }
  attr {
    key: "shared_name"
    value {
      s: ""
    }
  }
}
node {
  name: "block3_conv3/bias/Assign"
  op: "Assign"
  input: "block3_conv3/bias"
  input: "block3_conv3/Const"
  attr {
    key: "T"
    value {
      type: DT_FLOAT
    }
  }
  attr {
    key: "_class"
    value {
      list {
        s: "loc:@block3_conv3/bias"
      }
    }
  }
  attr {
    key: "use_locking"
    value {
      b: true
    }
  }
  attr {
    key: "validate_shape"
    value {
      b: true
    }
  }
}
node {
  name: "block3_conv3/bias/read"
  op: "Identity"
  input: "block3_conv3/bias"
  attr {
    key: "T"
    value {
      type: DT_FLOAT
    }
  }
  attr {
    key: "_class"
    value {
      list {
        s: "loc:@block3_conv3/bias"
      }
    }
  }
}
node {
  name: "block3_conv3/convolution/Shape"
  op: "Const"
  attr {
    key: "dtype"
    value {
      type: DT_INT32
    }
  }
  attr {
    key: "value"
    value {
      tensor {
        dtype: DT_INT32
        tensor_shape {
          dim {
            size: 4
          }
        }
        tensor_content: "\003\000\000\000\003\000\000\000\000\001\000\000\000\001\000\000"
      }
    }
  }
}
node {
  name: "block3_conv3/convolution/dilation_rate"
  op: "Const"
  attr {
    key: "dtype"
    value {
      type: DT_INT32
    }
  }
  attr {
    key: "value"
    value {
      tensor {
        dtype: DT_INT32
        tensor_shape {
          dim {
            size: 2
          }
        }
        tensor_content: "\001\000\000\000\001\000\000\000"
      }
    }
  }
}
node {
  name: "block3_conv3/convolution"
  op: "Conv2D"
  input: "block3_conv2/Relu"
  input: "block3_conv3/kernel/read"
  attr {
    key: "T"
    value {
      type: DT_FLOAT
    }
  }
  attr {
    key: "data_format"
    value {
      s: "NHWC"
    }
  }
  attr {
    key: "padding"
    value {
      s: "SAME"
    }
  }
  attr {
    key: "strides"
    value {
      list {
        i: 1
        i: 1
        i: 1
        i: 1
      }
    }
  }
  attr {
    key: "use_cudnn_on_gpu"
    value {
      b: true
    }
  }
}
node {
  name: "block3_conv3/BiasAdd"
  op: "BiasAdd"
  input: "block3_conv3/convolution"
  input: "block3_conv3/bias/read"
  attr {
    key: "T"
    value {
      type: DT_FLOAT
    }
  }
  attr {
    key: "data_format"
    value {
      s: "NHWC"
    }
  }
}
node {
  name: "block3_conv3/Relu"
  op: "Relu"
  input: "block3_conv3/BiasAdd"
  attr {
    key: "T"
    value {
      type: DT_FLOAT
    }
  }
}
node {
  name: "block3_pool/MaxPool"
  op: "MaxPool"
  input: "block3_conv3/Relu"
  attr {
    key: "T"
    value {
      type: DT_FLOAT
    }
  }
  attr {
    key: "data_format"
    value {
      s: "NHWC"
    }
  }
  attr {
    key: "ksize"
    value {
      list {
        i: 1
        i: 2
        i: 2
        i: 1
      }
    }
  }
  attr {
    key: "padding"
    value {
      s: "VALID"
    }
  }
  attr {
    key: "strides"
    value {
      list {
        i: 1
        i: 2
        i: 2
        i: 1
      }
    }
  }
}
node {
  name: "block4_conv1/random_uniform/shape"
  op: "Const"
  attr {
    key: "dtype"
    value {
      type: DT_INT32
    }
  }
  attr {
    key: "value"
    value {
      tensor {
        dtype: DT_INT32
        tensor_shape {
          dim {
            size: 4
          }
        }
        tensor_content: "\003\000\000\000\003\000\000\000\000\001\000\000\000\002\000\000"
      }
    }
  }
}
node {
  name: "block4_conv1/random_uniform/min"
  op: "Const"
  attr {
    key: "dtype"
    value {
      type: DT_FLOAT
    }
  }
  attr {
    key: "value"
    value {
      tensor {
        dtype: DT_FLOAT
        tensor_shape {
        }
        float_val: -0.0294627826661
      }
    }
  }
}
node {
  name: "block4_conv1/random_uniform/max"
  op: "Const"
  attr {
    key: "dtype"
    value {
      type: DT_FLOAT
    }
  }
  attr {
    key: "value"
    value {
      tensor {
        dtype: DT_FLOAT
        tensor_shape {
        }
        float_val: 0.0294627826661
      }
    }
  }
}
node {
  name: "block4_conv1/random_uniform/RandomUniform"
  op: "RandomUniform"
  input: "block4_conv1/random_uniform/shape"
  attr {
    key: "T"
    value {
      type: DT_INT32
    }
  }
  attr {
    key: "dtype"
    value {
      type: DT_FLOAT
    }
  }
  attr {
    key: "seed"
    value {
      i: 87654321
    }
  }
  attr {
    key: "seed2"
    value {
      i: 215528
    }
  }
}
node {
  name: "block4_conv1/random_uniform/sub"
  op: "Sub"
  input: "block4_conv1/random_uniform/max"
  input: "block4_conv1/random_uniform/min"
  attr {
    key: "T"
    value {
      type: DT_FLOAT
    }
  }
}
node {
  name: "block4_conv1/random_uniform/mul"
  op: "Mul"
  input: "block4_conv1/random_uniform/RandomUniform"
  input: "block4_conv1/random_uniform/sub"
  attr {
    key: "T"
    value {
      type: DT_FLOAT
    }
  }
}
node {
  name: "block4_conv1/random_uniform"
  op: "Add"
  input: "block4_conv1/random_uniform/mul"
  input: "block4_conv1/random_uniform/min"
  attr {
    key: "T"
    value {
      type: DT_FLOAT
    }
  }
}
node {
  name: "block4_conv1/kernel"
  op: "VariableV2"
  attr {
    key: "container"
    value {
      s: ""
    }
  }
  attr {
    key: "dtype"
    value {
      type: DT_FLOAT
    }
  }
  attr {
    key: "shape"
    value {
      shape {
        dim {
          size: 3
        }
        dim {
          size: 3
        }
        dim {
          size: 256
        }
        dim {
          size: 512
        }
      }
    }
  }
  attr {
    key: "shared_name"
    value {
      s: ""
    }
  }
}
node {
  name: "block4_conv1/kernel/Assign"
  op: "Assign"
  input: "block4_conv1/kernel"
  input: "block4_conv1/random_uniform"
  attr {
    key: "T"
    value {
      type: DT_FLOAT
    }
  }
  attr {
    key: "_class"
    value {
      list {
        s: "loc:@block4_conv1/kernel"
      }
    }
  }
  attr {
    key: "use_locking"
    value {
      b: true
    }
  }
  attr {
    key: "validate_shape"
    value {
      b: true
    }
  }
}
node {
  name: "block4_conv1/kernel/read"
  op: "Identity"
  input: "block4_conv1/kernel"
  attr {
    key: "T"
    value {
      type: DT_FLOAT
    }
  }
  attr {
    key: "_class"
    value {
      list {
        s: "loc:@block4_conv1/kernel"
      }
    }
  }
}
node {
  name: "block4_conv1/Const"
  op: "Const"
  attr {
    key: "dtype"
    value {
      type: DT_FLOAT
    }
  }
  attr {
    key: "value"
    value {
      tensor {
        dtype: DT_FLOAT
        tensor_shape {
          dim {
            size: 512
          }
        }
        float_val: 0.0
      }
    }
  }
}
node {
  name: "block4_conv1/bias"
  op: "VariableV2"
  attr {
    key: "container"
    value {
      s: ""
    }
  }
  attr {
    key: "dtype"
    value {
      type: DT_FLOAT
    }
  }
  attr {
    key: "shape"
    value {
      shape {
        dim {
          size: 512
        }
      }
    }
  }
  attr {
    key: "shared_name"
    value {
      s: ""
    }
  }
}
node {
  name: "block4_conv1/bias/Assign"
  op: "Assign"
  input: "block4_conv1/bias"
  input: "block4_conv1/Const"
  attr {
    key: "T"
    value {
      type: DT_FLOAT
    }
  }
  attr {
    key: "_class"
    value {
      list {
        s: "loc:@block4_conv1/bias"
      }
    }
  }
  attr {
    key: "use_locking"
    value {
      b: true
    }
  }
  attr {
    key: "validate_shape"
    value {
      b: true
    }
  }
}
node {
  name: "block4_conv1/bias/read"
  op: "Identity"
  input: "block4_conv1/bias"
  attr {
    key: "T"
    value {
      type: DT_FLOAT
    }
  }
  attr {
    key: "_class"
    value {
      list {
        s: "loc:@block4_conv1/bias"
      }
    }
  }
}
node {
  name: "block4_conv1/convolution/Shape"
  op: "Const"
  attr {
    key: "dtype"
    value {
      type: DT_INT32
    }
  }
  attr {
    key: "value"
    value {
      tensor {
        dtype: DT_INT32
        tensor_shape {
          dim {
            size: 4
          }
        }
        tensor_content: "\003\000\000\000\003\000\000\000\000\001\000\000\000\002\000\000"
      }
    }
  }
}
node {
  name: "block4_conv1/convolution/dilation_rate"
  op: "Const"
  attr {
    key: "dtype"
    value {
      type: DT_INT32
    }
  }
  attr {
    key: "value"
    value {
      tensor {
        dtype: DT_INT32
        tensor_shape {
          dim {
            size: 2
          }
        }
        tensor_content: "\001\000\000\000\001\000\000\000"
      }
    }
  }
}
node {
  name: "block4_conv1/convolution"
  op: "Conv2D"
  input: "block3_pool/MaxPool"
  input: "block4_conv1/kernel/read"
  attr {
    key: "T"
    value {
      type: DT_FLOAT
    }
  }
  attr {
    key: "data_format"
    value {
      s: "NHWC"
    }
  }
  attr {
    key: "padding"
    value {
      s: "SAME"
    }
  }
  attr {
    key: "strides"
    value {
      list {
        i: 1
        i: 1
        i: 1
        i: 1
      }
    }
  }
  attr {
    key: "use_cudnn_on_gpu"
    value {
      b: true
    }
  }
}
node {
  name: "block4_conv1/BiasAdd"
  op: "BiasAdd"
  input: "block4_conv1/convolution"
  input: "block4_conv1/bias/read"
  attr {
    key: "T"
    value {
      type: DT_FLOAT
    }
  }
  attr {
    key: "data_format"
    value {
      s: "NHWC"
    }
  }
}
node {
  name: "block4_conv1/Relu"
  op: "Relu"
  input: "block4_conv1/BiasAdd"
  attr {
    key: "T"
    value {
      type: DT_FLOAT
    }
  }
}
node {
  name: "block4_conv2/random_uniform/shape"
  op: "Const"
  attr {
    key: "dtype"
    value {
      type: DT_INT32
    }
  }
  attr {
    key: "value"
    value {
      tensor {
        dtype: DT_INT32
        tensor_shape {
          dim {
            size: 4
          }
        }
        tensor_content: "\003\000\000\000\003\000\000\000\000\002\000\000\000\002\000\000"
      }
    }
  }
}
node {
  name: "block4_conv2/random_uniform/min"
  op: "Const"
  attr {
    key: "dtype"
    value {
      type: DT_FLOAT
    }
  }
  attr {
    key: "value"
    value {
      tensor {
        dtype: DT_FLOAT
        tensor_shape {
        }
        float_val: -0.0255155190825
      }
    }
  }
}
node {
  name: "block4_conv2/random_uniform/max"
  op: "Const"
  attr {
    key: "dtype"
    value {
      type: DT_FLOAT
    }
  }
  attr {
    key: "value"
    value {
      tensor {
        dtype: DT_FLOAT
        tensor_shape {
        }
        float_val: 0.0255155190825
      }
    }
  }
}
node {
  name: "block4_conv2/random_uniform/RandomUniform"
  op: "RandomUniform"
  input: "block4_conv2/random_uniform/shape"
  attr {
    key: "T"
    value {
      type: DT_INT32
    }
  }
  attr {
    key: "dtype"
    value {
      type: DT_FLOAT
    }
  }
  attr {
    key: "seed"
    value {
      i: 87654321
    }
  }
  attr {
    key: "seed2"
    value {
      i: 5791903
    }
  }
}
node {
  name: "block4_conv2/random_uniform/sub"
  op: "Sub"
  input: "block4_conv2/random_uniform/max"
  input: "block4_conv2/random_uniform/min"
  attr {
    key: "T"
    value {
      type: DT_FLOAT
    }
  }
}
node {
  name: "block4_conv2/random_uniform/mul"
  op: "Mul"
  input: "block4_conv2/random_uniform/RandomUniform"
  input: "block4_conv2/random_uniform/sub"
  attr {
    key: "T"
    value {
      type: DT_FLOAT
    }
  }
}
node {
  name: "block4_conv2/random_uniform"
  op: "Add"
  input: "block4_conv2/random_uniform/mul"
  input: "block4_conv2/random_uniform/min"
  attr {
    key: "T"
    value {
      type: DT_FLOAT
    }
  }
}
node {
  name: "block4_conv2/kernel"
  op: "VariableV2"
  attr {
    key: "container"
    value {
      s: ""
    }
  }
  attr {
    key: "dtype"
    value {
      type: DT_FLOAT
    }
  }
  attr {
    key: "shape"
    value {
      shape {
        dim {
          size: 3
        }
        dim {
          size: 3
        }
        dim {
          size: 512
        }
        dim {
          size: 512
        }
      }
    }
  }
  attr {
    key: "shared_name"
    value {
      s: ""
    }
  }
}
node {
  name: "block4_conv2/kernel/Assign"
  op: "Assign"
  input: "block4_conv2/kernel"
  input: "block4_conv2/random_uniform"
  attr {
    key: "T"
    value {
      type: DT_FLOAT
    }
  }
  attr {
    key: "_class"
    value {
      list {
        s: "loc:@block4_conv2/kernel"
      }
    }
  }
  attr {
    key: "use_locking"
    value {
      b: true
    }
  }
  attr {
    key: "validate_shape"
    value {
      b: true
    }
  }
}
node {
  name: "block4_conv2/kernel/read"
  op: "Identity"
  input: "block4_conv2/kernel"
  attr {
    key: "T"
    value {
      type: DT_FLOAT
    }
  }
  attr {
    key: "_class"
    value {
      list {
        s: "loc:@block4_conv2/kernel"
      }
    }
  }
}
node {
  name: "block4_conv2/Const"
  op: "Const"
  attr {
    key: "dtype"
    value {
      type: DT_FLOAT
    }
  }
  attr {
    key: "value"
    value {
      tensor {
        dtype: DT_FLOAT
        tensor_shape {
          dim {
            size: 512
          }
        }
        float_val: 0.0
      }
    }
  }
}
node {
  name: "block4_conv2/bias"
  op: "VariableV2"
  attr {
    key: "container"
    value {
      s: ""
    }
  }
  attr {
    key: "dtype"
    value {
      type: DT_FLOAT
    }
  }
  attr {
    key: "shape"
    value {
      shape {
        dim {
          size: 512
        }
      }
    }
  }
  attr {
    key: "shared_name"
    value {
      s: ""
    }
  }
}
node {
  name: "block4_conv2/bias/Assign"
  op: "Assign"
  input: "block4_conv2/bias"
  input: "block4_conv2/Const"
  attr {
    key: "T"
    value {
      type: DT_FLOAT
    }
  }
  attr {
    key: "_class"
    value {
      list {
        s: "loc:@block4_conv2/bias"
      }
    }
  }
  attr {
    key: "use_locking"
    value {
      b: true
    }
  }
  attr {
    key: "validate_shape"
    value {
      b: true
    }
  }
}
node {
  name: "block4_conv2/bias/read"
  op: "Identity"
  input: "block4_conv2/bias"
  attr {
    key: "T"
    value {
      type: DT_FLOAT
    }
  }
  attr {
    key: "_class"
    value {
      list {
        s: "loc:@block4_conv2/bias"
      }
    }
  }
}
node {
  name: "block4_conv2/convolution/Shape"
  op: "Const"
  attr {
    key: "dtype"
    value {
      type: DT_INT32
    }
  }
  attr {
    key: "value"
    value {
      tensor {
        dtype: DT_INT32
        tensor_shape {
          dim {
            size: 4
          }
        }
        tensor_content: "\003\000\000\000\003\000\000\000\000\002\000\000\000\002\000\000"
      }
    }
  }
}
node {
  name: "block4_conv2/convolution/dilation_rate"
  op: "Const"
  attr {
    key: "dtype"
    value {
      type: DT_INT32
    }
  }
  attr {
    key: "value"
    value {
      tensor {
        dtype: DT_INT32
        tensor_shape {
          dim {
            size: 2
          }
        }
        tensor_content: "\001\000\000\000\001\000\000\000"
      }
    }
  }
}
node {
  name: "block4_conv2/convolution"
  op: "Conv2D"
  input: "block4_conv1/Relu"
  input: "block4_conv2/kernel/read"
  attr {
    key: "T"
    value {
      type: DT_FLOAT
    }
  }
  attr {
    key: "data_format"
    value {
      s: "NHWC"
    }
  }
  attr {
    key: "padding"
    value {
      s: "SAME"
    }
  }
  attr {
    key: "strides"
    value {
      list {
        i: 1
        i: 1
        i: 1
        i: 1
      }
    }
  }
  attr {
    key: "use_cudnn_on_gpu"
    value {
      b: true
    }
  }
}
node {
  name: "block4_conv2/BiasAdd"
  op: "BiasAdd"
  input: "block4_conv2/convolution"
  input: "block4_conv2/bias/read"
  attr {
    key: "T"
    value {
      type: DT_FLOAT
    }
  }
  attr {
    key: "data_format"
    value {
      s: "NHWC"
    }
  }
}
node {
  name: "block4_conv2/Relu"
  op: "Relu"
  input: "block4_conv2/BiasAdd"
  attr {
    key: "T"
    value {
      type: DT_FLOAT
    }
  }
}
node {
  name: "block4_conv3/random_uniform/shape"
  op: "Const"
  attr {
    key: "dtype"
    value {
      type: DT_INT32
    }
  }
  attr {
    key: "value"
    value {
      tensor {
        dtype: DT_INT32
        tensor_shape {
          dim {
            size: 4
          }
        }
        tensor_content: "\003\000\000\000\003\000\000\000\000\002\000\000\000\002\000\000"
      }
    }
  }
}
node {
  name: "block4_conv3/random_uniform/min"
  op: "Const"
  attr {
    key: "dtype"
    value {
      type: DT_FLOAT
    }
  }
  attr {
    key: "value"
    value {
      tensor {
        dtype: DT_FLOAT
        tensor_shape {
        }
        float_val: -0.0255155190825
      }
    }
  }
}
node {
  name: "block4_conv3/random_uniform/max"
  op: "Const"
  attr {
    key: "dtype"
    value {
      type: DT_FLOAT
    }
  }
  attr {
    key: "value"
    value {
      tensor {
        dtype: DT_FLOAT
        tensor_shape {
        }
        float_val: 0.0255155190825
      }
    }
  }
}
node {
  name: "block4_conv3/random_uniform/RandomUniform"
  op: "RandomUniform"
  input: "block4_conv3/random_uniform/shape"
  attr {
    key: "T"
    value {
      type: DT_INT32
    }
  }
  attr {
    key: "dtype"
    value {
      type: DT_FLOAT
    }
  }
  attr {
    key: "seed"
    value {
      i: 87654321
    }
  }
  attr {
    key: "seed2"
    value {
      i: 6240709
    }
  }
}
node {
  name: "block4_conv3/random_uniform/sub"
  op: "Sub"
  input: "block4_conv3/random_uniform/max"
  input: "block4_conv3/random_uniform/min"
  attr {
    key: "T"
    value {
      type: DT_FLOAT
    }
  }
}
node {
  name: "block4_conv3/random_uniform/mul"
  op: "Mul"
  input: "block4_conv3/random_uniform/RandomUniform"
  input: "block4_conv3/random_uniform/sub"
  attr {
    key: "T"
    value {
      type: DT_FLOAT
    }
  }
}
node {
  name: "block4_conv3/random_uniform"
  op: "Add"
  input: "block4_conv3/random_uniform/mul"
  input: "block4_conv3/random_uniform/min"
  attr {
    key: "T"
    value {
      type: DT_FLOAT
    }
  }
}
node {
  name: "block4_conv3/kernel"
  op: "VariableV2"
  attr {
    key: "container"
    value {
      s: ""
    }
  }
  attr {
    key: "dtype"
    value {
      type: DT_FLOAT
    }
  }
  attr {
    key: "shape"
    value {
      shape {
        dim {
          size: 3
        }
        dim {
          size: 3
        }
        dim {
          size: 512
        }
        dim {
          size: 512
        }
      }
    }
  }
  attr {
    key: "shared_name"
    value {
      s: ""
    }
  }
}
node {
  name: "block4_conv3/kernel/Assign"
  op: "Assign"
  input: "block4_conv3/kernel"
  input: "block4_conv3/random_uniform"
  attr {
    key: "T"
    value {
      type: DT_FLOAT
    }
  }
  attr {
    key: "_class"
    value {
      list {
        s: "loc:@block4_conv3/kernel"
      }
    }
  }
  attr {
    key: "use_locking"
    value {
      b: true
    }
  }
  attr {
    key: "validate_shape"
    value {
      b: true
    }
  }
}
node {
  name: "block4_conv3/kernel/read"
  op: "Identity"
  input: "block4_conv3/kernel"
  attr {
    key: "T"
    value {
      type: DT_FLOAT
    }
  }
  attr {
    key: "_class"
    value {
      list {
        s: "loc:@block4_conv3/kernel"
      }
    }
  }
}
node {
  name: "block4_conv3/Const"
  op: "Const"
  attr {
    key: "dtype"
    value {
      type: DT_FLOAT
    }
  }
  attr {
    key: "value"
    value {
      tensor {
        dtype: DT_FLOAT
        tensor_shape {
          dim {
            size: 512
          }
        }
        float_val: 0.0
      }
    }
  }
}
node {
  name: "block4_conv3/bias"
  op: "VariableV2"
  attr {
    key: "container"
    value {
      s: ""
    }
  }
  attr {
    key: "dtype"
    value {
      type: DT_FLOAT
    }
  }
  attr {
    key: "shape"
    value {
      shape {
        dim {
          size: 512
        }
      }
    }
  }
  attr {
    key: "shared_name"
    value {
      s: ""
    }
  }
}
node {
  name: "block4_conv3/bias/Assign"
  op: "Assign"
  input: "block4_conv3/bias"
  input: "block4_conv3/Const"
  attr {
    key: "T"
    value {
      type: DT_FLOAT
    }
  }
  attr {
    key: "_class"
    value {
      list {
        s: "loc:@block4_conv3/bias"
      }
    }
  }
  attr {
    key: "use_locking"
    value {
      b: true
    }
  }
  attr {
    key: "validate_shape"
    value {
      b: true
    }
  }
}
node {
  name: "block4_conv3/bias/read"
  op: "Identity"
  input: "block4_conv3/bias"
  attr {
    key: "T"
    value {
      type: DT_FLOAT
    }
  }
  attr {
    key: "_class"
    value {
      list {
        s: "loc:@block4_conv3/bias"
      }
    }
  }
}
node {
  name: "block4_conv3/convolution/Shape"
  op: "Const"
  attr {
    key: "dtype"
    value {
      type: DT_INT32
    }
  }
  attr {
    key: "value"
    value {
      tensor {
        dtype: DT_INT32
        tensor_shape {
          dim {
            size: 4
          }
        }
        tensor_content: "\003\000\000\000\003\000\000\000\000\002\000\000\000\002\000\000"
      }
    }
  }
}
node {
  name: "block4_conv3/convolution/dilation_rate"
  op: "Const"
  attr {
    key: "dtype"
    value {
      type: DT_INT32
    }
  }
  attr {
    key: "value"
    value {
      tensor {
        dtype: DT_INT32
        tensor_shape {
          dim {
            size: 2
          }
        }
        tensor_content: "\001\000\000\000\001\000\000\000"
      }
    }
  }
}
node {
  name: "block4_conv3/convolution"
  op: "Conv2D"
  input: "block4_conv2/Relu"
  input: "block4_conv3/kernel/read"
  attr {
    key: "T"
    value {
      type: DT_FLOAT
    }
  }
  attr {
    key: "data_format"
    value {
      s: "NHWC"
    }
  }
  attr {
    key: "padding"
    value {
      s: "SAME"
    }
  }
  attr {
    key: "strides"
    value {
      list {
        i: 1
        i: 1
        i: 1
        i: 1
      }
    }
  }
  attr {
    key: "use_cudnn_on_gpu"
    value {
      b: true
    }
  }
}
node {
  name: "block4_conv3/BiasAdd"
  op: "BiasAdd"
  input: "block4_conv3/convolution"
  input: "block4_conv3/bias/read"
  attr {
    key: "T"
    value {
      type: DT_FLOAT
    }
  }
  attr {
    key: "data_format"
    value {
      s: "NHWC"
    }
  }
}
node {
  name: "block4_conv3/Relu"
  op: "Relu"
  input: "block4_conv3/BiasAdd"
  attr {
    key: "T"
    value {
      type: DT_FLOAT
    }
  }
}
node {
  name: "block4_pool/MaxPool"
  op: "MaxPool"
  input: "block4_conv3/Relu"
  attr {
    key: "T"
    value {
      type: DT_FLOAT
    }
  }
  attr {
    key: "data_format"
    value {
      s: "NHWC"
    }
  }
  attr {
    key: "ksize"
    value {
      list {
        i: 1
        i: 2
        i: 2
        i: 1
      }
    }
  }
  attr {
    key: "padding"
    value {
      s: "VALID"
    }
  }
  attr {
    key: "strides"
    value {
      list {
        i: 1
        i: 2
        i: 2
        i: 1
      }
    }
  }
}
node {
  name: "block5_conv1/random_uniform/shape"
  op: "Const"
  attr {
    key: "dtype"
    value {
      type: DT_INT32
    }
  }
  attr {
    key: "value"
    value {
      tensor {
        dtype: DT_INT32
        tensor_shape {
          dim {
            size: 4
          }
        }
        tensor_content: "\003\000\000\000\003\000\000\000\000\002\000\000\000\002\000\000"
      }
    }
  }
}
node {
  name: "block5_conv1/random_uniform/min"
  op: "Const"
  attr {
    key: "dtype"
    value {
      type: DT_FLOAT
    }
  }
  attr {
    key: "value"
    value {
      tensor {
        dtype: DT_FLOAT
        tensor_shape {
        }
        float_val: -0.0255155190825
      }
    }
  }
}
node {
  name: "block5_conv1/random_uniform/max"
  op: "Const"
  attr {
    key: "dtype"
    value {
      type: DT_FLOAT
    }
  }
  attr {
    key: "value"
    value {
      tensor {
        dtype: DT_FLOAT
        tensor_shape {
        }
        float_val: 0.0255155190825
      }
    }
  }
}
node {
  name: "block5_conv1/random_uniform/RandomUniform"
  op: "RandomUniform"
  input: "block5_conv1/random_uniform/shape"
  attr {
    key: "T"
    value {
      type: DT_INT32
    }
  }
  attr {
    key: "dtype"
    value {
      type: DT_FLOAT
    }
  }
  attr {
    key: "seed"
    value {
      i: 87654321
    }
  }
  attr {
    key: "seed2"
    value {
      i: 7151531
    }
  }
}
node {
  name: "block5_conv1/random_uniform/sub"
  op: "Sub"
  input: "block5_conv1/random_uniform/max"
  input: "block5_conv1/random_uniform/min"
  attr {
    key: "T"
    value {
      type: DT_FLOAT
    }
  }
}
node {
  name: "block5_conv1/random_uniform/mul"
  op: "Mul"
  input: "block5_conv1/random_uniform/RandomUniform"
  input: "block5_conv1/random_uniform/sub"
  attr {
    key: "T"
    value {
      type: DT_FLOAT
    }
  }
}
node {
  name: "block5_conv1/random_uniform"
  op: "Add"
  input: "block5_conv1/random_uniform/mul"
  input: "block5_conv1/random_uniform/min"
  attr {
    key: "T"
    value {
      type: DT_FLOAT
    }
  }
}
node {
  name: "block5_conv1/kernel"
  op: "VariableV2"
  attr {
    key: "container"
    value {
      s: ""
    }
  }
  attr {
    key: "dtype"
    value {
      type: DT_FLOAT
    }
  }
  attr {
    key: "shape"
    value {
      shape {
        dim {
          size: 3
        }
        dim {
          size: 3
        }
        dim {
          size: 512
        }
        dim {
          size: 512
        }
      }
    }
  }
  attr {
    key: "shared_name"
    value {
      s: ""
    }
  }
}
node {
  name: "block5_conv1/kernel/Assign"
  op: "Assign"
  input: "block5_conv1/kernel"
  input: "block5_conv1/random_uniform"
  attr {
    key: "T"
    value {
      type: DT_FLOAT
    }
  }
  attr {
    key: "_class"
    value {
      list {
        s: "loc:@block5_conv1/kernel"
      }
    }
  }
  attr {
    key: "use_locking"
    value {
      b: true
    }
  }
  attr {
    key: "validate_shape"
    value {
      b: true
    }
  }
}
node {
  name: "block5_conv1/kernel/read"
  op: "Identity"
  input: "block5_conv1/kernel"
  attr {
    key: "T"
    value {
      type: DT_FLOAT
    }
  }
  attr {
    key: "_class"
    value {
      list {
        s: "loc:@block5_conv1/kernel"
      }
    }
  }
}
node {
  name: "block5_conv1/Const"
  op: "Const"
  attr {
    key: "dtype"
    value {
      type: DT_FLOAT
    }
  }
  attr {
    key: "value"
    value {
      tensor {
        dtype: DT_FLOAT
        tensor_shape {
          dim {
            size: 512
          }
        }
        float_val: 0.0
      }
    }
  }
}
node {
  name: "block5_conv1/bias"
  op: "VariableV2"
  attr {
    key: "container"
    value {
      s: ""
    }
  }
  attr {
    key: "dtype"
    value {
      type: DT_FLOAT
    }
  }
  attr {
    key: "shape"
    value {
      shape {
        dim {
          size: 512
        }
      }
    }
  }
  attr {
    key: "shared_name"
    value {
      s: ""
    }
  }
}
node {
  name: "block5_conv1/bias/Assign"
  op: "Assign"
  input: "block5_conv1/bias"
  input: "block5_conv1/Const"
  attr {
    key: "T"
    value {
      type: DT_FLOAT
    }
  }
  attr {
    key: "_class"
    value {
      list {
        s: "loc:@block5_conv1/bias"
      }
    }
  }
  attr {
    key: "use_locking"
    value {
      b: true
    }
  }
  attr {
    key: "validate_shape"
    value {
      b: true
    }
  }
}
node {
  name: "block5_conv1/bias/read"
  op: "Identity"
  input: "block5_conv1/bias"
  attr {
    key: "T"
    value {
      type: DT_FLOAT
    }
  }
  attr {
    key: "_class"
    value {
      list {
        s: "loc:@block5_conv1/bias"
      }
    }
  }
}
node {
  name: "block5_conv1/convolution/Shape"
  op: "Const"
  attr {
    key: "dtype"
    value {
      type: DT_INT32
    }
  }
  attr {
    key: "value"
    value {
      tensor {
        dtype: DT_INT32
        tensor_shape {
          dim {
            size: 4
          }
        }
        tensor_content: "\003\000\000\000\003\000\000\000\000\002\000\000\000\002\000\000"
      }
    }
  }
}
node {
  name: "block5_conv1/convolution/dilation_rate"
  op: "Const"
  attr {
    key: "dtype"
    value {
      type: DT_INT32
    }
  }
  attr {
    key: "value"
    value {
      tensor {
        dtype: DT_INT32
        tensor_shape {
          dim {
            size: 2
          }
        }
        tensor_content: "\001\000\000\000\001\000\000\000"
      }
    }
  }
}
node {
  name: "block5_conv1/convolution"
  op: "Conv2D"
  input: "block4_pool/MaxPool"
  input: "block5_conv1/kernel/read"
  attr {
    key: "T"
    value {
      type: DT_FLOAT
    }
  }
  attr {
    key: "data_format"
    value {
      s: "NHWC"
    }
  }
  attr {
    key: "padding"
    value {
      s: "SAME"
    }
  }
  attr {
    key: "strides"
    value {
      list {
        i: 1
        i: 1
        i: 1
        i: 1
      }
    }
  }
  attr {
    key: "use_cudnn_on_gpu"
    value {
      b: true
    }
  }
}
node {
  name: "block5_conv1/BiasAdd"
  op: "BiasAdd"
  input: "block5_conv1/convolution"
  input: "block5_conv1/bias/read"
  attr {
    key: "T"
    value {
      type: DT_FLOAT
    }
  }
  attr {
    key: "data_format"
    value {
      s: "NHWC"
    }
  }
}
node {
  name: "block5_conv1/Relu"
  op: "Relu"
  input: "block5_conv1/BiasAdd"
  attr {
    key: "T"
    value {
      type: DT_FLOAT
    }
  }
}
node {
  name: "block5_conv2/random_uniform/shape"
  op: "Const"
  attr {
    key: "dtype"
    value {
      type: DT_INT32
    }
  }
  attr {
    key: "value"
    value {
      tensor {
        dtype: DT_INT32
        tensor_shape {
          dim {
            size: 4
          }
        }
        tensor_content: "\003\000\000\000\003\000\000\000\000\002\000\000\000\002\000\000"
      }
    }
  }
}
node {
  name: "block5_conv2/random_uniform/min"
  op: "Const"
  attr {
    key: "dtype"
    value {
      type: DT_FLOAT
    }
  }
  attr {
    key: "value"
    value {
      tensor {
        dtype: DT_FLOAT
        tensor_shape {
        }
        float_val: -0.0255155190825
      }
    }
  }
}
node {
  name: "block5_conv2/random_uniform/max"
  op: "Const"
  attr {
    key: "dtype"
    value {
      type: DT_FLOAT
    }
  }
  attr {
    key: "value"
    value {
      tensor {
        dtype: DT_FLOAT
        tensor_shape {
        }
        float_val: 0.0255155190825
      }
    }
  }
}
node {
  name: "block5_conv2/random_uniform/RandomUniform"
  op: "RandomUniform"
  input: "block5_conv2/random_uniform/shape"
  attr {
    key: "T"
    value {
      type: DT_INT32
    }
  }
  attr {
    key: "dtype"
    value {
      type: DT_FLOAT
    }
  }
  attr {
    key: "seed"
    value {
      i: 87654321
    }
  }
  attr {
    key: "seed2"
    value {
      i: 4344407
    }
  }
}
node {
  name: "block5_conv2/random_uniform/sub"
  op: "Sub"
  input: "block5_conv2/random_uniform/max"
  input: "block5_conv2/random_uniform/min"
  attr {
    key: "T"
    value {
      type: DT_FLOAT
    }
  }
}
node {
  name: "block5_conv2/random_uniform/mul"
  op: "Mul"
  input: "block5_conv2/random_uniform/RandomUniform"
  input: "block5_conv2/random_uniform/sub"
  attr {
    key: "T"
    value {
      type: DT_FLOAT
    }
  }
}
node {
  name: "block5_conv2/random_uniform"
  op: "Add"
  input: "block5_conv2/random_uniform/mul"
  input: "block5_conv2/random_uniform/min"
  attr {
    key: "T"
    value {
      type: DT_FLOAT
    }
  }
}
node {
  name: "block5_conv2/kernel"
  op: "VariableV2"
  attr {
    key: "container"
    value {
      s: ""
    }
  }
  attr {
    key: "dtype"
    value {
      type: DT_FLOAT
    }
  }
  attr {
    key: "shape"
    value {
      shape {
        dim {
          size: 3
        }
        dim {
          size: 3
        }
        dim {
          size: 512
        }
        dim {
          size: 512
        }
      }
    }
  }
  attr {
    key: "shared_name"
    value {
      s: ""
    }
  }
}
node {
  name: "block5_conv2/kernel/Assign"
  op: "Assign"
  input: "block5_conv2/kernel"
  input: "block5_conv2/random_uniform"
  attr {
    key: "T"
    value {
      type: DT_FLOAT
    }
  }
  attr {
    key: "_class"
    value {
      list {
        s: "loc:@block5_conv2/kernel"
      }
    }
  }
  attr {
    key: "use_locking"
    value {
      b: true
    }
  }
  attr {
    key: "validate_shape"
    value {
      b: true
    }
  }
}
node {
  name: "block5_conv2/kernel/read"
  op: "Identity"
  input: "block5_conv2/kernel"
  attr {
    key: "T"
    value {
      type: DT_FLOAT
    }
  }
  attr {
    key: "_class"
    value {
      list {
        s: "loc:@block5_conv2/kernel"
      }
    }
  }
}
node {
  name: "block5_conv2/Const"
  op: "Const"
  attr {
    key: "dtype"
    value {
      type: DT_FLOAT
    }
  }
  attr {
    key: "value"
    value {
      tensor {
        dtype: DT_FLOAT
        tensor_shape {
          dim {
            size: 512
          }
        }
        float_val: 0.0
      }
    }
  }
}
node {
  name: "block5_conv2/bias"
  op: "VariableV2"
  attr {
    key: "container"
    value {
      s: ""
    }
  }
  attr {
    key: "dtype"
    value {
      type: DT_FLOAT
    }
  }
  attr {
    key: "shape"
    value {
      shape {
        dim {
          size: 512
        }
      }
    }
  }
  attr {
    key: "shared_name"
    value {
      s: ""
    }
  }
}
node {
  name: "block5_conv2/bias/Assign"
  op: "Assign"
  input: "block5_conv2/bias"
  input: "block5_conv2/Const"
  attr {
    key: "T"
    value {
      type: DT_FLOAT
    }
  }
  attr {
    key: "_class"
    value {
      list {
        s: "loc:@block5_conv2/bias"
      }
    }
  }
  attr {
    key: "use_locking"
    value {
      b: true
    }
  }
  attr {
    key: "validate_shape"
    value {
      b: true
    }
  }
}
node {
  name: "block5_conv2/bias/read"
  op: "Identity"
  input: "block5_conv2/bias"
  attr {
    key: "T"
    value {
      type: DT_FLOAT
    }
  }
  attr {
    key: "_class"
    value {
      list {
        s: "loc:@block5_conv2/bias"
      }
    }
  }
}
node {
  name: "block5_conv2/convolution/Shape"
  op: "Const"
  attr {
    key: "dtype"
    value {
      type: DT_INT32
    }
  }
  attr {
    key: "value"
    value {
      tensor {
        dtype: DT_INT32
        tensor_shape {
          dim {
            size: 4
          }
        }
        tensor_content: "\003\000\000\000\003\000\000\000\000\002\000\000\000\002\000\000"
      }
    }
  }
}
node {
  name: "block5_conv2/convolution/dilation_rate"
  op: "Const"
  attr {
    key: "dtype"
    value {
      type: DT_INT32
    }
  }
  attr {
    key: "value"
    value {
      tensor {
        dtype: DT_INT32
        tensor_shape {
          dim {
            size: 2
          }
        }
        tensor_content: "\001\000\000\000\001\000\000\000"
      }
    }
  }
}
node {
  name: "block5_conv2/convolution"
  op: "Conv2D"
  input: "block5_conv1/Relu"
  input: "block5_conv2/kernel/read"
  attr {
    key: "T"
    value {
      type: DT_FLOAT
    }
  }
  attr {
    key: "data_format"
    value {
      s: "NHWC"
    }
  }
  attr {
    key: "padding"
    value {
      s: "SAME"
    }
  }
  attr {
    key: "strides"
    value {
      list {
        i: 1
        i: 1
        i: 1
        i: 1
      }
    }
  }
  attr {
    key: "use_cudnn_on_gpu"
    value {
      b: true
    }
  }
}
node {
  name: "block5_conv2/BiasAdd"
  op: "BiasAdd"
  input: "block5_conv2/convolution"
  input: "block5_conv2/bias/read"
  attr {
    key: "T"
    value {
      type: DT_FLOAT
    }
  }
  attr {
    key: "data_format"
    value {
      s: "NHWC"
    }
  }
}
node {
  name: "block5_conv2/Relu"
  op: "Relu"
  input: "block5_conv2/BiasAdd"
  attr {
    key: "T"
    value {
      type: DT_FLOAT
    }
  }
}
node {
  name: "block5_conv3/random_uniform/shape"
  op: "Const"
  attr {
    key: "dtype"
    value {
      type: DT_INT32
    }
  }
  attr {
    key: "value"
    value {
      tensor {
        dtype: DT_INT32
        tensor_shape {
          dim {
            size: 4
          }
        }
        tensor_content: "\003\000\000\000\003\000\000\000\000\002\000\000\000\002\000\000"
      }
    }
  }
}
node {
  name: "block5_conv3/random_uniform/min"
  op: "Const"
  attr {
    key: "dtype"
    value {
      type: DT_FLOAT
    }
  }
  attr {
    key: "value"
    value {
      tensor {
        dtype: DT_FLOAT
        tensor_shape {
        }
        float_val: -0.0255155190825
      }
    }
  }
}
node {
  name: "block5_conv3/random_uniform/max"
  op: "Const"
  attr {
    key: "dtype"
    value {
      type: DT_FLOAT
    }
  }
  attr {
    key: "value"
    value {
      tensor {
        dtype: DT_FLOAT
        tensor_shape {
        }
        float_val: 0.0255155190825
      }
    }
  }
}
node {
  name: "block5_conv3/random_uniform/RandomUniform"
  op: "RandomUniform"
  input: "block5_conv3/random_uniform/shape"
  attr {
    key: "T"
    value {
      type: DT_INT32
    }
  }
  attr {
    key: "dtype"
    value {
      type: DT_FLOAT
    }
  }
  attr {
    key: "seed"
    value {
      i: 87654321
    }
  }
  attr {
    key: "seed2"
    value {
      i: 3686380
    }
  }
}
node {
  name: "block5_conv3/random_uniform/sub"
  op: "Sub"
  input: "block5_conv3/random_uniform/max"
  input: "block5_conv3/random_uniform/min"
  attr {
    key: "T"
    value {
      type: DT_FLOAT
    }
  }
}
node {
  name: "block5_conv3/random_uniform/mul"
  op: "Mul"
  input: "block5_conv3/random_uniform/RandomUniform"
  input: "block5_conv3/random_uniform/sub"
  attr {
    key: "T"
    value {
      type: DT_FLOAT
    }
  }
}
node {
  name: "block5_conv3/random_uniform"
  op: "Add"
  input: "block5_conv3/random_uniform/mul"
  input: "block5_conv3/random_uniform/min"
  attr {
    key: "T"
    value {
      type: DT_FLOAT
    }
  }
}
node {
  name: "block5_conv3/kernel"
  op: "VariableV2"
  attr {
    key: "container"
    value {
      s: ""
    }
  }
  attr {
    key: "dtype"
    value {
      type: DT_FLOAT
    }
  }
  attr {
    key: "shape"
    value {
      shape {
        dim {
          size: 3
        }
        dim {
          size: 3
        }
        dim {
          size: 512
        }
        dim {
          size: 512
        }
      }
    }
  }
  attr {
    key: "shared_name"
    value {
      s: ""
    }
  }
}
node {
  name: "block5_conv3/kernel/Assign"
  op: "Assign"
  input: "block5_conv3/kernel"
  input: "block5_conv3/random_uniform"
  attr {
    key: "T"
    value {
      type: DT_FLOAT
    }
  }
  attr {
    key: "_class"
    value {
      list {
        s: "loc:@block5_conv3/kernel"
      }
    }
  }
  attr {
    key: "use_locking"
    value {
      b: true
    }
  }
  attr {
    key: "validate_shape"
    value {
      b: true
    }
  }
}
node {
  name: "block5_conv3/kernel/read"
  op: "Identity"
  input: "block5_conv3/kernel"
  attr {
    key: "T"
    value {
      type: DT_FLOAT
    }
  }
  attr {
    key: "_class"
    value {
      list {
        s: "loc:@block5_conv3/kernel"
      }
    }
  }
}
node {
  name: "block5_conv3/Const"
  op: "Const"
  attr {
    key: "dtype"
    value {
      type: DT_FLOAT
    }
  }
  attr {
    key: "value"
    value {
      tensor {
        dtype: DT_FLOAT
        tensor_shape {
          dim {
            size: 512
          }
        }
        float_val: 0.0
      }
    }
  }
}
node {
  name: "block5_conv3/bias"
  op: "VariableV2"
  attr {
    key: "container"
    value {
      s: ""
    }
  }
  attr {
    key: "dtype"
    value {
      type: DT_FLOAT
    }
  }
  attr {
    key: "shape"
    value {
      shape {
        dim {
          size: 512
        }
      }
    }
  }
  attr {
    key: "shared_name"
    value {
      s: ""
    }
  }
}
node {
  name: "block5_conv3/bias/Assign"
  op: "Assign"
  input: "block5_conv3/bias"
  input: "block5_conv3/Const"
  attr {
    key: "T"
    value {
      type: DT_FLOAT
    }
  }
  attr {
    key: "_class"
    value {
      list {
        s: "loc:@block5_conv3/bias"
      }
    }
  }
  attr {
    key: "use_locking"
    value {
      b: true
    }
  }
  attr {
    key: "validate_shape"
    value {
      b: true
    }
  }
}
node {
  name: "block5_conv3/bias/read"
  op: "Identity"
  input: "block5_conv3/bias"
  attr {
    key: "T"
    value {
      type: DT_FLOAT
    }
  }
  attr {
    key: "_class"
    value {
      list {
        s: "loc:@block5_conv3/bias"
      }
    }
  }
}
node {
  name: "block5_conv3/convolution/Shape"
  op: "Const"
  attr {
    key: "dtype"
    value {
      type: DT_INT32
    }
  }
  attr {
    key: "value"
    value {
      tensor {
        dtype: DT_INT32
        tensor_shape {
          dim {
            size: 4
          }
        }
        tensor_content: "\003\000\000\000\003\000\000\000\000\002\000\000\000\002\000\000"
      }
    }
  }
}
node {
  name: "block5_conv3/convolution/dilation_rate"
  op: "Const"
  attr {
    key: "dtype"
    value {
      type: DT_INT32
    }
  }
  attr {
    key: "value"
    value {
      tensor {
        dtype: DT_INT32
        tensor_shape {
          dim {
            size: 2
          }
        }
        tensor_content: "\001\000\000\000\001\000\000\000"
      }
    }
  }
}
node {
  name: "block5_conv3/convolution"
  op: "Conv2D"
  input: "block5_conv2/Relu"
  input: "block5_conv3/kernel/read"
  attr {
    key: "T"
    value {
      type: DT_FLOAT
    }
  }
  attr {
    key: "data_format"
    value {
      s: "NHWC"
    }
  }
  attr {
    key: "padding"
    value {
      s: "SAME"
    }
  }
  attr {
    key: "strides"
    value {
      list {
        i: 1
        i: 1
        i: 1
        i: 1
      }
    }
  }
  attr {
    key: "use_cudnn_on_gpu"
    value {
      b: true
    }
  }
}
node {
  name: "block5_conv3/BiasAdd"
  op: "BiasAdd"
  input: "block5_conv3/convolution"
  input: "block5_conv3/bias/read"
  attr {
    key: "T"
    value {
      type: DT_FLOAT
    }
  }
  attr {
    key: "data_format"
    value {
      s: "NHWC"
    }
  }
}
node {
  name: "block5_conv3/Relu"
  op: "Relu"
  input: "block5_conv3/BiasAdd"
  attr {
    key: "T"
    value {
      type: DT_FLOAT
    }
  }
}
node {
  name: "block5_pool/MaxPool"
  op: "MaxPool"
  input: "block5_conv3/Relu"
  attr {
    key: "T"
    value {
      type: DT_FLOAT
    }
  }
  attr {
    key: "data_format"
    value {
      s: "NHWC"
    }
  }
  attr {
    key: "ksize"
    value {
      list {
        i: 1
        i: 2
        i: 2
        i: 1
      }
    }
  }
  attr {
    key: "padding"
    value {
      s: "VALID"
    }
  }
  attr {
    key: "strides"
    value {
      list {
        i: 1
        i: 2
        i: 2
        i: 1
      }
    }
  }
}
node {
  name: "Placeholder"
  op: "Placeholder"
  attr {
    key: "dtype"
    value {
      type: DT_FLOAT
    }
  }
  attr {
    key: "shape"
    value {
      shape {
        dim {
          size: 3
        }
        dim {
          size: 3
        }
        dim {
          size: 3
        }
        dim {
          size: 64
        }
      }
    }
  }
}
node {
  name: "Assign"
  op: "Assign"
  input: "block1_conv1/kernel"
  input: "Placeholder"
  attr {
    key: "T"
    value {
      type: DT_FLOAT
    }
  }
  attr {
    key: "_class"
    value {
      list {
        s: "loc:@block1_conv1/kernel"
      }
    }
  }
  attr {
    key: "use_locking"
    value {
      b: false
    }
  }
  attr {
    key: "validate_shape"
    value {
      b: true
    }
  }
}
node {
  name: "Placeholder_1"
  op: "Placeholder"
  attr {
    key: "dtype"
    value {
      type: DT_FLOAT
    }
  }
  attr {
    key: "shape"
    value {
      shape {
        dim {
          size: 64
        }
      }
    }
  }
}
node {
  name: "Assign_1"
  op: "Assign"
  input: "block1_conv1/bias"
  input: "Placeholder_1"
  attr {
    key: "T"
    value {
      type: DT_FLOAT
    }
  }
  attr {
    key: "_class"
    value {
      list {
        s: "loc:@block1_conv1/bias"
      }
    }
  }
  attr {
    key: "use_locking"
    value {
      b: false
    }
  }
  attr {
    key: "validate_shape"
    value {
      b: true
    }
  }
}
node {
  name: "Placeholder_2"
  op: "Placeholder"
  attr {
    key: "dtype"
    value {
      type: DT_FLOAT
    }
  }
  attr {
    key: "shape"
    value {
      shape {
        dim {
          size: 3
        }
        dim {
          size: 3
        }
        dim {
          size: 64
        }
        dim {
          size: 64
        }
      }
    }
  }
}
node {
  name: "Assign_2"
  op: "Assign"
  input: "block1_conv2/kernel"
  input: "Placeholder_2"
  attr {
    key: "T"
    value {
      type: DT_FLOAT
    }
  }
  attr {
    key: "_class"
    value {
      list {
        s: "loc:@block1_conv2/kernel"
      }
    }
  }
  attr {
    key: "use_locking"
    value {
      b: false
    }
  }
  attr {
    key: "validate_shape"
    value {
      b: true
    }
  }
}
node {
  name: "Placeholder_3"
  op: "Placeholder"
  attr {
    key: "dtype"
    value {
      type: DT_FLOAT
    }
  }
  attr {
    key: "shape"
    value {
      shape {
        dim {
          size: 64
        }
      }
    }
  }
}
node {
  name: "Assign_3"
  op: "Assign"
  input: "block1_conv2/bias"
  input: "Placeholder_3"
  attr {
    key: "T"
    value {
      type: DT_FLOAT
    }
  }
  attr {
    key: "_class"
    value {
      list {
        s: "loc:@block1_conv2/bias"
      }
    }
  }
  attr {
    key: "use_locking"
    value {
      b: false
    }
  }
  attr {
    key: "validate_shape"
    value {
      b: true
    }
  }
}
node {
  name: "Placeholder_4"
  op: "Placeholder"
  attr {
    key: "dtype"
    value {
      type: DT_FLOAT
    }
  }
  attr {
    key: "shape"
    value {
      shape {
        dim {
          size: 3
        }
        dim {
          size: 3
        }
        dim {
          size: 64
        }
        dim {
          size: 128
        }
      }
    }
  }
}
node {
  name: "Assign_4"
  op: "Assign"
  input: "block2_conv1/kernel"
  input: "Placeholder_4"
  attr {
    key: "T"
    value {
      type: DT_FLOAT
    }
  }
  attr {
    key: "_class"
    value {
      list {
        s: "loc:@block2_conv1/kernel"
      }
    }
  }
  attr {
    key: "use_locking"
    value {
      b: false
    }
  }
  attr {
    key: "validate_shape"
    value {
      b: true
    }
  }
}
node {
  name: "Placeholder_5"
  op: "Placeholder"
  attr {
    key: "dtype"
    value {
      type: DT_FLOAT
    }
  }
  attr {
    key: "shape"
    value {
      shape {
        dim {
          size: 128
        }
      }
    }
  }
}
node {
  name: "Assign_5"
  op: "Assign"
  input: "block2_conv1/bias"
  input: "Placeholder_5"
  attr {
    key: "T"
    value {
      type: DT_FLOAT
    }
  }
  attr {
    key: "_class"
    value {
      list {
        s: "loc:@block2_conv1/bias"
      }
    }
  }
  attr {
    key: "use_locking"
    value {
      b: false
    }
  }
  attr {
    key: "validate_shape"
    value {
      b: true
    }
  }
}
node {
  name: "Placeholder_6"
  op: "Placeholder"
  attr {
    key: "dtype"
    value {
      type: DT_FLOAT
    }
  }
  attr {
    key: "shape"
    value {
      shape {
        dim {
          size: 3
        }
        dim {
          size: 3
        }
        dim {
          size: 128
        }
        dim {
          size: 128
        }
      }
    }
  }
}
node {
  name: "Assign_6"
  op: "Assign"
  input: "block2_conv2/kernel"
  input: "Placeholder_6"
  attr {
    key: "T"
    value {
      type: DT_FLOAT
    }
  }
  attr {
    key: "_class"
    value {
      list {
        s: "loc:@block2_conv2/kernel"
      }
    }
  }
  attr {
    key: "use_locking"
    value {
      b: false
    }
  }
  attr {
    key: "validate_shape"
    value {
      b: true
    }
  }
}
node {
  name: "Placeholder_7"
  op: "Placeholder"
  attr {
    key: "dtype"
    value {
      type: DT_FLOAT
    }
  }
  attr {
    key: "shape"
    value {
      shape {
        dim {
          size: 128
        }
      }
    }
  }
}
node {
  name: "Assign_7"
  op: "Assign"
  input: "block2_conv2/bias"
  input: "Placeholder_7"
  attr {
    key: "T"
    value {
      type: DT_FLOAT
    }
  }
  attr {
    key: "_class"
    value {
      list {
        s: "loc:@block2_conv2/bias"
      }
    }
  }
  attr {
    key: "use_locking"
    value {
      b: false
    }
  }
  attr {
    key: "validate_shape"
    value {
      b: true
    }
  }
}
node {
  name: "Placeholder_8"
  op: "Placeholder"
  attr {
    key: "dtype"
    value {
      type: DT_FLOAT
    }
  }
  attr {
    key: "shape"
    value {
      shape {
        dim {
          size: 3
        }
        dim {
          size: 3
        }
        dim {
          size: 128
        }
        dim {
          size: 256
        }
      }
    }
  }
}
node {
  name: "Assign_8"
  op: "Assign"
  input: "block3_conv1/kernel"
  input: "Placeholder_8"
  attr {
    key: "T"
    value {
      type: DT_FLOAT
    }
  }
  attr {
    key: "_class"
    value {
      list {
        s: "loc:@block3_conv1/kernel"
      }
    }
  }
  attr {
    key: "use_locking"
    value {
      b: false
    }
  }
  attr {
    key: "validate_shape"
    value {
      b: true
    }
  }
}
node {
  name: "Placeholder_9"
  op: "Placeholder"
  attr {
    key: "dtype"
    value {
      type: DT_FLOAT
    }
  }
  attr {
    key: "shape"
    value {
      shape {
        dim {
          size: 256
        }
      }
    }
  }
}
node {
  name: "Assign_9"
  op: "Assign"
  input: "block3_conv1/bias"
  input: "Placeholder_9"
  attr {
    key: "T"
    value {
      type: DT_FLOAT
    }
  }
  attr {
    key: "_class"
    value {
      list {
        s: "loc:@block3_conv1/bias"
      }
    }
  }
  attr {
    key: "use_locking"
    value {
      b: false
    }
  }
  attr {
    key: "validate_shape"
    value {
      b: true
    }
  }
}
node {
  name: "Placeholder_10"
  op: "Placeholder"
  attr {
    key: "dtype"
    value {
      type: DT_FLOAT
    }
  }
  attr {
    key: "shape"
    value {
      shape {
        dim {
          size: 3
        }
        dim {
          size: 3
        }
        dim {
          size: 256
        }
        dim {
          size: 256
        }
      }
    }
  }
}
node {
  name: "Assign_10"
  op: "Assign"
  input: "block3_conv2/kernel"
  input: "Placeholder_10"
  attr {
    key: "T"
    value {
      type: DT_FLOAT
    }
  }
  attr {
    key: "_class"
    value {
      list {
        s: "loc:@block3_conv2/kernel"
      }
    }
  }
  attr {
    key: "use_locking"
    value {
      b: false
    }
  }
  attr {
    key: "validate_shape"
    value {
      b: true
    }
  }
}
node {
  name: "Placeholder_11"
  op: "Placeholder"
  attr {
    key: "dtype"
    value {
      type: DT_FLOAT
    }
  }
  attr {
    key: "shape"
    value {
      shape {
        dim {
          size: 256
        }
      }
    }
  }
}
node {
  name: "Assign_11"
  op: "Assign"
  input: "block3_conv2/bias"
  input: "Placeholder_11"
  attr {
    key: "T"
    value {
      type: DT_FLOAT
    }
  }
  attr {
    key: "_class"
    value {
      list {
        s: "loc:@block3_conv2/bias"
      }
    }
  }
  attr {
    key: "use_locking"
    value {
      b: false
    }
  }
  attr {
    key: "validate_shape"
    value {
      b: true
    }
  }
}
node {
  name: "Placeholder_12"
  op: "Placeholder"
  attr {
    key: "dtype"
    value {
      type: DT_FLOAT
    }
  }
  attr {
    key: "shape"
    value {
      shape {
        dim {
          size: 3
        }
        dim {
          size: 3
        }
        dim {
          size: 256
        }
        dim {
          size: 256
        }
      }
    }
  }
}
node {
  name: "Assign_12"
  op: "Assign"
  input: "block3_conv3/kernel"
  input: "Placeholder_12"
  attr {
    key: "T"
    value {
      type: DT_FLOAT
    }
  }
  attr {
    key: "_class"
    value {
      list {
        s: "loc:@block3_conv3/kernel"
      }
    }
  }
  attr {
    key: "use_locking"
    value {
      b: false
    }
  }
  attr {
    key: "validate_shape"
    value {
      b: true
    }
  }
}
node {
  name: "Placeholder_13"
  op: "Placeholder"
  attr {
    key: "dtype"
    value {
      type: DT_FLOAT
    }
  }
  attr {
    key: "shape"
    value {
      shape {
        dim {
          size: 256
        }
      }
    }
  }
}
node {
  name: "Assign_13"
  op: "Assign"
  input: "block3_conv3/bias"
  input: "Placeholder_13"
  attr {
    key: "T"
    value {
      type: DT_FLOAT
    }
  }
  attr {
    key: "_class"
    value {
      list {
        s: "loc:@block3_conv3/bias"
      }
    }
  }
  attr {
    key: "use_locking"
    value {
      b: false
    }
  }
  attr {
    key: "validate_shape"
    value {
      b: true
    }
  }
}
node {
  name: "Placeholder_14"
  op: "Placeholder"
  attr {
    key: "dtype"
    value {
      type: DT_FLOAT
    }
  }
  attr {
    key: "shape"
    value {
      shape {
        dim {
          size: 3
        }
        dim {
          size: 3
        }
        dim {
          size: 256
        }
        dim {
          size: 512
        }
      }
    }
  }
}
node {
  name: "Assign_14"
  op: "Assign"
  input: "block4_conv1/kernel"
  input: "Placeholder_14"
  attr {
    key: "T"
    value {
      type: DT_FLOAT
    }
  }
  attr {
    key: "_class"
    value {
      list {
        s: "loc:@block4_conv1/kernel"
      }
    }
  }
  attr {
    key: "use_locking"
    value {
      b: false
    }
  }
  attr {
    key: "validate_shape"
    value {
      b: true
    }
  }
}
node {
  name: "Placeholder_15"
  op: "Placeholder"
  attr {
    key: "dtype"
    value {
      type: DT_FLOAT
    }
  }
  attr {
    key: "shape"
    value {
      shape {
        dim {
          size: 512
        }
      }
    }
  }
}
node {
  name: "Assign_15"
  op: "Assign"
  input: "block4_conv1/bias"
  input: "Placeholder_15"
  attr {
    key: "T"
    value {
      type: DT_FLOAT
    }
  }
  attr {
    key: "_class"
    value {
      list {
        s: "loc:@block4_conv1/bias"
      }
    }
  }
  attr {
    key: "use_locking"
    value {
      b: false
    }
  }
  attr {
    key: "validate_shape"
    value {
      b: true
    }
  }
}
node {
  name: "Placeholder_16"
  op: "Placeholder"
  attr {
    key: "dtype"
    value {
      type: DT_FLOAT
    }
  }
  attr {
    key: "shape"
    value {
      shape {
        dim {
          size: 3
        }
        dim {
          size: 3
        }
        dim {
          size: 512
        }
        dim {
          size: 512
        }
      }
    }
  }
}
node {
  name: "Assign_16"
  op: "Assign"
  input: "block4_conv2/kernel"
  input: "Placeholder_16"
  attr {
    key: "T"
    value {
      type: DT_FLOAT
    }
  }
  attr {
    key: "_class"
    value {
      list {
        s: "loc:@block4_conv2/kernel"
      }
    }
  }
  attr {
    key: "use_locking"
    value {
      b: false
    }
  }
  attr {
    key: "validate_shape"
    value {
      b: true
    }
  }
}
node {
  name: "Placeholder_17"
  op: "Placeholder"
  attr {
    key: "dtype"
    value {
      type: DT_FLOAT
    }
  }
  attr {
    key: "shape"
    value {
      shape {
        dim {
          size: 512
        }
      }
    }
  }
}
node {
  name: "Assign_17"
  op: "Assign"
  input: "block4_conv2/bias"
  input: "Placeholder_17"
  attr {
    key: "T"
    value {
      type: DT_FLOAT
    }
  }
  attr {
    key: "_class"
    value {
      list {
        s: "loc:@block4_conv2/bias"
      }
    }
  }
  attr {
    key: "use_locking"
    value {
      b: false
    }
  }
  attr {
    key: "validate_shape"
    value {
      b: true
    }
  }
}
node {
  name: "Placeholder_18"
  op: "Placeholder"
  attr {
    key: "dtype"
    value {
      type: DT_FLOAT
    }
  }
  attr {
    key: "shape"
    value {
      shape {
        dim {
          size: 3
        }
        dim {
          size: 3
        }
        dim {
          size: 512
        }
        dim {
          size: 512
        }
      }
    }
  }
}
node {
  name: "Assign_18"
  op: "Assign"
  input: "block4_conv3/kernel"
  input: "Placeholder_18"
  attr {
    key: "T"
    value {
      type: DT_FLOAT
    }
  }
  attr {
    key: "_class"
    value {
      list {
        s: "loc:@block4_conv3/kernel"
      }
    }
  }
  attr {
    key: "use_locking"
    value {
      b: false
    }
  }
  attr {
    key: "validate_shape"
    value {
      b: true
    }
  }
}
node {
  name: "Placeholder_19"
  op: "Placeholder"
  attr {
    key: "dtype"
    value {
      type: DT_FLOAT
    }
  }
  attr {
    key: "shape"
    value {
      shape {
        dim {
          size: 512
        }
      }
    }
  }
}
node {
  name: "Assign_19"
  op: "Assign"
  input: "block4_conv3/bias"
  input: "Placeholder_19"
  attr {
    key: "T"
    value {
      type: DT_FLOAT
    }
  }
  attr {
    key: "_class"
    value {
      list {
        s: "loc:@block4_conv3/bias"
      }
    }
  }
  attr {
    key: "use_locking"
    value {
      b: false
    }
  }
  attr {
    key: "validate_shape"
    value {
      b: true
    }
  }
}
node {
  name: "Placeholder_20"
  op: "Placeholder"
  attr {
    key: "dtype"
    value {
      type: DT_FLOAT
    }
  }
  attr {
    key: "shape"
    value {
      shape {
        dim {
          size: 3
        }
        dim {
          size: 3
        }
        dim {
          size: 512
        }
        dim {
          size: 512
        }
      }
    }
  }
}
node {
  name: "Assign_20"
  op: "Assign"
  input: "block5_conv1/kernel"
  input: "Placeholder_20"
  attr {
    key: "T"
    value {
      type: DT_FLOAT
    }
  }
  attr {
    key: "_class"
    value {
      list {
        s: "loc:@block5_conv1/kernel"
      }
    }
  }
  attr {
    key: "use_locking"
    value {
      b: false
    }
  }
  attr {
    key: "validate_shape"
    value {
      b: true
    }
  }
}
node {
  name: "Placeholder_21"
  op: "Placeholder"
  attr {
    key: "dtype"
    value {
      type: DT_FLOAT
    }
  }
  attr {
    key: "shape"
    value {
      shape {
        dim {
          size: 512
        }
      }
    }
  }
}
node {
  name: "Assign_21"
  op: "Assign"
  input: "block5_conv1/bias"
  input: "Placeholder_21"
  attr {
    key: "T"
    value {
      type: DT_FLOAT
    }
  }
  attr {
    key: "_class"
    value {
      list {
        s: "loc:@block5_conv1/bias"
      }
    }
  }
  attr {
    key: "use_locking"
    value {
      b: false
    }
  }
  attr {
    key: "validate_shape"
    value {
      b: true
    }
  }
}
node {
  name: "Placeholder_22"
  op: "Placeholder"
  attr {
    key: "dtype"
    value {
      type: DT_FLOAT
    }
  }
  attr {
    key: "shape"
    value {
      shape {
        dim {
          size: 3
        }
        dim {
          size: 3
        }
        dim {
          size: 512
        }
        dim {
          size: 512
        }
      }
    }
  }
}
node {
  name: "Assign_22"
  op: "Assign"
  input: "block5_conv2/kernel"
  input: "Placeholder_22"
  attr {
    key: "T"
    value {
      type: DT_FLOAT
    }
  }
  attr {
    key: "_class"
    value {
      list {
        s: "loc:@block5_conv2/kernel"
      }
    }
  }
  attr {
    key: "use_locking"
    value {
      b: false
    }
  }
  attr {
    key: "validate_shape"
    value {
      b: true
    }
  }
}
node {
  name: "Placeholder_23"
  op: "Placeholder"
  attr {
    key: "dtype"
    value {
      type: DT_FLOAT
    }
  }
  attr {
    key: "shape"
    value {
      shape {
        dim {
          size: 512
        }
      }
    }
  }
}
node {
  name: "Assign_23"
  op: "Assign"
  input: "block5_conv2/bias"
  input: "Placeholder_23"
  attr {
    key: "T"
    value {
      type: DT_FLOAT
    }
  }
  attr {
    key: "_class"
    value {
      list {
        s: "loc:@block5_conv2/bias"
      }
    }
  }
  attr {
    key: "use_locking"
    value {
      b: false
    }
  }
  attr {
    key: "validate_shape"
    value {
      b: true
    }
  }
}
node {
  name: "Placeholder_24"
  op: "Placeholder"
  attr {
    key: "dtype"
    value {
      type: DT_FLOAT
    }
  }
  attr {
    key: "shape"
    value {
      shape {
        dim {
          size: 3
        }
        dim {
          size: 3
        }
        dim {
          size: 512
        }
        dim {
          size: 512
        }
      }
    }
  }
}
node {
  name: "Assign_24"
  op: "Assign"
  input: "block5_conv3/kernel"
  input: "Placeholder_24"
  attr {
    key: "T"
    value {
      type: DT_FLOAT
    }
  }
  attr {
    key: "_class"
    value {
      list {
        s: "loc:@block5_conv3/kernel"
      }
    }
  }
  attr {
    key: "use_locking"
    value {
      b: false
    }
  }
  attr {
    key: "validate_shape"
    value {
      b: true
    }
  }
}
node {
  name: "Placeholder_25"
  op: "Placeholder"
  attr {
    key: "dtype"
    value {
      type: DT_FLOAT
    }
  }
  attr {
    key: "shape"
    value {
      shape {
        dim {
          size: 512
        }
      }
    }
  }
}
node {
  name: "Assign_25"
  op: "Assign"
  input: "block5_conv3/bias"
  input: "Placeholder_25"
  attr {
    key: "T"
    value {
      type: DT_FLOAT
    }
  }
  attr {
    key: "_class"
    value {
      list {
        s: "loc:@block5_conv3/bias"
      }
    }
  }
  attr {
    key: "use_locking"
    value {
      b: false
    }
  }
  attr {
    key: "validate_shape"
    value {
      b: true
    }
  }
}
node {
  name: "init"
  op: "NoOp"
  input: "^block1_conv1/kernel/Assign"
  input: "^block1_conv1/bias/Assign"
  input: "^block1_conv2/kernel/Assign"
  input: "^block1_conv2/bias/Assign"
  input: "^block2_conv1/kernel/Assign"
  input: "^block2_conv1/bias/Assign"
  input: "^block2_conv2/kernel/Assign"
  input: "^block2_conv2/bias/Assign"
  input: "^block3_conv1/kernel/Assign"
  input: "^block3_conv1/bias/Assign"
  input: "^block3_conv2/kernel/Assign"
  input: "^block3_conv2/bias/Assign"
  input: "^block3_conv3/kernel/Assign"
  input: "^block3_conv3/bias/Assign"
  input: "^block4_conv1/kernel/Assign"
  input: "^block4_conv1/bias/Assign"
  input: "^block4_conv2/kernel/Assign"
  input: "^block4_conv2/bias/Assign"
  input: "^block4_conv3/kernel/Assign"
  input: "^block4_conv3/bias/Assign"
  input: "^block5_conv1/kernel/Assign"
  input: "^block5_conv1/bias/Assign"
  input: "^block5_conv2/kernel/Assign"
  input: "^block5_conv2/bias/Assign"
  input: "^block5_conv3/kernel/Assign"
  input: "^block5_conv3/bias/Assign"
}
node {
  name: "flatten_1/Shape"
  op: "Shape"
  input: "block5_pool/MaxPool"
  attr {
    key: "T"
    value {
      type: DT_FLOAT
    }
  }
  attr {
    key: "out_type"
    value {
      type: DT_INT32
    }
  }
}
node {
  name: "flatten_1/strided_slice/stack"
  op: "Const"
  attr {
    key: "dtype"
    value {
      type: DT_INT32
    }
  }
  attr {
    key: "value"
    value {
      tensor {
        dtype: DT_INT32
        tensor_shape {
          dim {
            size: 1
          }
        }
        int_val: 1
      }
    }
  }
}
node {
  name: "flatten_1/strided_slice/stack_1"
  op: "Const"
  attr {
    key: "dtype"
    value {
      type: DT_INT32
    }
  }
  attr {
    key: "value"
    value {
      tensor {
        dtype: DT_INT32
        tensor_shape {
          dim {
            size: 1
          }
        }
        int_val: 0
      }
    }
  }
}
node {
  name: "flatten_1/strided_slice/stack_2"
  op: "Const"
  attr {
    key: "dtype"
    value {
      type: DT_INT32
    }
  }
  attr {
    key: "value"
    value {
      tensor {
        dtype: DT_INT32
        tensor_shape {
          dim {
            size: 1
          }
        }
        int_val: 1
      }
    }
  }
}
node {
  name: "flatten_1/strided_slice"
  op: "StridedSlice"
  input: "flatten_1/Shape"
  input: "flatten_1/strided_slice/stack"
  input: "flatten_1/strided_slice/stack_1"
  input: "flatten_1/strided_slice/stack_2"
  attr {
    key: "Index"
    value {
      type: DT_INT32
    }
  }
  attr {
    key: "T"
    value {
      type: DT_INT32
    }
  }
  attr {
    key: "begin_mask"
    value {
      i: 0
    }
  }
  attr {
    key: "ellipsis_mask"
    value {
      i: 0
    }
  }
  attr {
    key: "end_mask"
    value {
      i: 1
    }
  }
  attr {
    key: "new_axis_mask"
    value {
      i: 0
    }
  }
  attr {
    key: "shrink_axis_mask"
    value {
      i: 0
    }
  }
}
node {
  name: "flatten_1/Const"
  op: "Const"
  attr {
    key: "dtype"
    value {
      type: DT_INT32
    }
  }
  attr {
    key: "value"
    value {
      tensor {
        dtype: DT_INT32
        tensor_shape {
          dim {
            size: 1
          }
        }
        int_val: 0
      }
    }
  }
}
node {
  name: "flatten_1/Prod"
  op: "Prod"
  input: "flatten_1/strided_slice"
  input: "flatten_1/Const"
  attr {
    key: "T"
    value {
      type: DT_INT32
    }
  }
  attr {
    key: "Tidx"
    value {
      type: DT_INT32
    }
  }
  attr {
    key: "keep_dims"
    value {
      b: false
    }
  }
}
node {
  name: "flatten_1/stack/0"
  op: "Const"
  attr {
    key: "dtype"
    value {
      type: DT_INT32
    }
  }
  attr {
    key: "value"
    value {
      tensor {
        dtype: DT_INT32
        tensor_shape {
        }
        int_val: -1
      }
    }
  }
}
node {
  name: "flatten_1/stack"
  op: "Pack"
  input: "flatten_1/stack/0"
  input: "flatten_1/Prod"
  attr {
    key: "N"
    value {
      i: 2
    }
  }
  attr {
    key: "T"
    value {
      type: DT_INT32
    }
  }
  attr {
    key: "axis"
    value {
      i: 0
    }
  }
}
node {
  name: "flatten_1/Reshape"
  op: "Reshape"
  input: "block5_pool/MaxPool"
  input: "flatten_1/stack"
  attr {
    key: "T"
    value {
      type: DT_FLOAT
    }
  }
  attr {
    key: "Tshape"
    value {
      type: DT_INT32
    }
  }
}
node {
  name: "dense_1/random_uniform/shape"
  op: "Const"
  attr {
    key: "dtype"
    value {
      type: DT_INT32
    }
  }
  attr {
    key: "value"
    value {
      tensor {
        dtype: DT_INT32
        tensor_shape {
          dim {
            size: 2
          }
        }
        tensor_content: "\000\002\000\000\000\004\000\000"
      }
    }
  }
}
node {
  name: "dense_1/random_uniform/min"
  op: "Const"
  attr {
    key: "dtype"
    value {
      type: DT_FLOAT
    }
  }
  attr {
    key: "value"
    value {
      tensor {
        dtype: DT_FLOAT
        tensor_shape {
        }
        float_val: -0.0625
      }
    }
  }
}
node {
  name: "dense_1/random_uniform/max"
  op: "Const"
  attr {
    key: "dtype"
    value {
      type: DT_FLOAT
    }
  }
  attr {
    key: "value"
    value {
      tensor {
        dtype: DT_FLOAT
        tensor_shape {
        }
        float_val: 0.0625
      }
    }
  }
}
node {
  name: "dense_1/random_uniform/RandomUniform"
  op: "RandomUniform"
  input: "dense_1/random_uniform/shape"
  attr {
    key: "T"
    value {
      type: DT_INT32
    }
  }
  attr {
    key: "dtype"
    value {
      type: DT_FLOAT
    }
  }
  attr {
    key: "seed"
    value {
      i: 87654321
    }
  }
  attr {
    key: "seed2"
    value {
      i: 9805962
    }
  }
}
node {
  name: "dense_1/random_uniform/sub"
  op: "Sub"
  input: "dense_1/random_uniform/max"
  input: "dense_1/random_uniform/min"
  attr {
    key: "T"
    value {
      type: DT_FLOAT
    }
  }
}
node {
  name: "dense_1/random_uniform/mul"
  op: "Mul"
  input: "dense_1/random_uniform/RandomUniform"
  input: "dense_1/random_uniform/sub"
  attr {
    key: "T"
    value {
      type: DT_FLOAT
    }
  }
}
node {
  name: "dense_1/random_uniform"
  op: "Add"
  input: "dense_1/random_uniform/mul"
  input: "dense_1/random_uniform/min"
  attr {
    key: "T"
    value {
      type: DT_FLOAT
    }
  }
}
node {
  name: "dense_1/kernel"
  op: "VariableV2"
  attr {
    key: "container"
    value {
      s: ""
    }
  }
  attr {
    key: "dtype"
    value {
      type: DT_FLOAT
    }
  }
  attr {
    key: "shape"
    value {
      shape {
        dim {
          size: 512
        }
        dim {
          size: 1024
        }
      }
    }
  }
  attr {
    key: "shared_name"
    value {
      s: ""
    }
  }
}
node {
  name: "dense_1/kernel/Assign"
  op: "Assign"
  input: "dense_1/kernel"
  input: "dense_1/random_uniform"
  attr {
    key: "T"
    value {
      type: DT_FLOAT
    }
  }
  attr {
    key: "_class"
    value {
      list {
        s: "loc:@dense_1/kernel"
      }
    }
  }
  attr {
    key: "use_locking"
    value {
      b: true
    }
  }
  attr {
    key: "validate_shape"
    value {
      b: true
    }
  }
}
node {
  name: "dense_1/kernel/read"
  op: "Identity"
  input: "dense_1/kernel"
  attr {
    key: "T"
    value {
      type: DT_FLOAT
    }
  }
  attr {
    key: "_class"
    value {
      list {
        s: "loc:@dense_1/kernel"
      }
    }
  }
}
node {
  name: "dense_1/Const"
  op: "Const"
  attr {
    key: "dtype"
    value {
      type: DT_FLOAT
    }
  }
  attr {
    key: "value"
    value {
      tensor {
        dtype: DT_FLOAT
        tensor_shape {
          dim {
            size: 1024
          }
        }
        float_val: 0.0
      }
    }
  }
}
node {
  name: "dense_1/bias"
  op: "VariableV2"
  attr {
    key: "container"
    value {
      s: ""
    }
  }
  attr {
    key: "dtype"
    value {
      type: DT_FLOAT
    }
  }
  attr {
    key: "shape"
    value {
      shape {
        dim {
          size: 1024
        }
      }
    }
  }
  attr {
    key: "shared_name"
    value {
      s: ""
    }
  }
}
node {
  name: "dense_1/bias/Assign"
  op: "Assign"
  input: "dense_1/bias"
  input: "dense_1/Const"
  attr {
    key: "T"
    value {
      type: DT_FLOAT
    }
  }
  attr {
    key: "_class"
    value {
      list {
        s: "loc:@dense_1/bias"
      }
    }
  }
  attr {
    key: "use_locking"
    value {
      b: true
    }
  }
  attr {
    key: "validate_shape"
    value {
      b: true
    }
  }
}
node {
  name: "dense_1/bias/read"
  op: "Identity"
  input: "dense_1/bias"
  attr {
    key: "T"
    value {
      type: DT_FLOAT
    }
  }
  attr {
    key: "_class"
    value {
      list {
        s: "loc:@dense_1/bias"
      }
    }
  }
}
node {
  name: "dense_1/MatMul"
  op: "MatMul"
  input: "flatten_1/Reshape"
  input: "dense_1/kernel/read"
  attr {
    key: "T"
    value {
      type: DT_FLOAT
    }
  }
  attr {
    key: "transpose_a"
    value {
      b: false
    }
  }
  attr {
    key: "transpose_b"
    value {
      b: false
    }
  }
}
node {
  name: "dense_1/BiasAdd"
  op: "BiasAdd"
  input: "dense_1/MatMul"
  input: "dense_1/bias/read"
  attr {
    key: "T"
    value {
      type: DT_FLOAT
    }
  }
  attr {
    key: "data_format"
    value {
      s: "NHWC"
    }
  }
}
node {
  name: "dense_1/Relu"
  op: "Relu"
  input: "dense_1/BiasAdd"
  attr {
    key: "T"
    value {
      type: DT_FLOAT
    }
  }
}
node {
  name: "dropout_1/keras_learning_phase"
  op: "Placeholder"
  attr {
    key: "dtype"
    value {
      type: DT_BOOL
    }
  }
  attr {
    key: "shape"
    value {
      shape {
        unknown_rank: true
      }
    }
  }
}
node {
  name: "dropout_1/cond/Switch"
  op: "Switch"
  input: "dropout_1/keras_learning_phase"
  input: "dropout_1/keras_learning_phase"
  attr {
    key: "T"
    value {
      type: DT_BOOL
    }
  }
}
node {
  name: "dropout_1/cond/switch_t"
  op: "Identity"
  input: "dropout_1/cond/Switch:1"
  attr {
    key: "T"
    value {
      type: DT_BOOL
    }
  }
}
node {
  name: "dropout_1/cond/switch_f"
  op: "Identity"
  input: "dropout_1/cond/Switch"
  attr {
    key: "T"
    value {
      type: DT_BOOL
    }
  }
}
node {
  name: "dropout_1/cond/pred_id"
  op: "Identity"
  input: "dropout_1/keras_learning_phase"
  attr {
    key: "T"
    value {
      type: DT_BOOL
    }
  }
}
node {
  name: "dropout_1/cond/mul/y"
  op: "Const"
  input: "^dropout_1/cond/switch_t"
  attr {
    key: "dtype"
    value {
      type: DT_FLOAT
    }
  }
  attr {
    key: "value"
    value {
      tensor {
        dtype: DT_FLOAT
        tensor_shape {
        }
        float_val: 1.0
      }
    }
  }
}
node {
  name: "dropout_1/cond/mul/Switch"
  op: "Switch"
  input: "dense_1/Relu"
  input: "dropout_1/cond/pred_id"
  attr {
    key: "T"
    value {
      type: DT_FLOAT
    }
  }
  attr {
    key: "_class"
    value {
      list {
        s: "loc:@dense_1/Relu"
      }
    }
  }
}
node {
  name: "dropout_1/cond/mul"
  op: "Mul"
  input: "dropout_1/cond/mul/Switch:1"
  input: "dropout_1/cond/mul/y"
  attr {
    key: "T"
    value {
      type: DT_FLOAT
    }
  }
}
node {
  name: "dropout_1/cond/dropout/keep_prob"
  op: "Const"
  input: "^dropout_1/cond/switch_t"
  attr {
    key: "dtype"
    value {
      type: DT_FLOAT
    }
  }
  attr {
    key: "value"
    value {
      tensor {
        dtype: DT_FLOAT
        tensor_shape {
        }
        float_val: 0.5
      }
    }
  }
}
node {
  name: "dropout_1/cond/dropout/Shape"
  op: "Shape"
  input: "dropout_1/cond/mul"
  attr {
    key: "T"
    value {
      type: DT_FLOAT
    }
  }
  attr {
    key: "out_type"
    value {
      type: DT_INT32
    }
  }
}
node {
  name: "dropout_1/cond/dropout/random_uniform/min"
  op: "Const"
  input: "^dropout_1/cond/switch_t"
  attr {
    key: "dtype"
    value {
      type: DT_FLOAT
    }
  }
  attr {
    key: "value"
    value {
      tensor {
        dtype: DT_FLOAT
        tensor_shape {
        }
        float_val: 0.0
      }
    }
  }
}
node {
  name: "dropout_1/cond/dropout/random_uniform/max"
  op: "Const"
  input: "^dropout_1/cond/switch_t"
  attr {
    key: "dtype"
    value {
      type: DT_FLOAT
    }
  }
  attr {
    key: "value"
    value {
      tensor {
        dtype: DT_FLOAT
        tensor_shape {
        }
        float_val: 1.0
      }
    }
  }
}
node {
  name: "dropout_1/cond/dropout/random_uniform/RandomUniform"
  op: "RandomUniform"
  input: "dropout_1/cond/dropout/Shape"
  attr {
    key: "T"
    value {
      type: DT_INT32
    }
  }
  attr {
    key: "dtype"
    value {
      type: DT_FLOAT
    }
  }
  attr {
    key: "seed"
    value {
      i: 87654321
    }
  }
  attr {
    key: "seed2"
    value {
      i: 4883238
    }
  }
}
node {
  name: "dropout_1/cond/dropout/random_uniform/sub"
  op: "Sub"
  input: "dropout_1/cond/dropout/random_uniform/max"
  input: "dropout_1/cond/dropout/random_uniform/min"
  attr {
    key: "T"
    value {
      type: DT_FLOAT
    }
  }
}
node {
  name: "dropout_1/cond/dropout/random_uniform/mul"
  op: "Mul"
  input: "dropout_1/cond/dropout/random_uniform/RandomUniform"
  input: "dropout_1/cond/dropout/random_uniform/sub"
  attr {
    key: "T"
    value {
      type: DT_FLOAT
    }
  }
}
node {
  name: "dropout_1/cond/dropout/random_uniform"
  op: "Add"
  input: "dropout_1/cond/dropout/random_uniform/mul"
  input: "dropout_1/cond/dropout/random_uniform/min"
  attr {
    key: "T"
    value {
      type: DT_FLOAT
    }
  }
}
node {
  name: "dropout_1/cond/dropout/add"
  op: "Add"
  input: "dropout_1/cond/dropout/keep_prob"
  input: "dropout_1/cond/dropout/random_uniform"
  attr {
    key: "T"
    value {
      type: DT_FLOAT
    }
  }
}
node {
  name: "dropout_1/cond/dropout/Floor"
  op: "Floor"
  input: "dropout_1/cond/dropout/add"
  attr {
    key: "T"
    value {
      type: DT_FLOAT
    }
  }
}
node {
  name: "dropout_1/cond/dropout/div"
  op: "RealDiv"
  input: "dropout_1/cond/mul"
  input: "dropout_1/cond/dropout/keep_prob"
  attr {
    key: "T"
    value {
      type: DT_FLOAT
    }
  }
}
node {
  name: "dropout_1/cond/dropout/mul"
  op: "Mul"
  input: "dropout_1/cond/dropout/div"
  input: "dropout_1/cond/dropout/Floor"
  attr {
    key: "T"
    value {
      type: DT_FLOAT
    }
  }
}
node {
  name: "dropout_1/cond/Switch_1"
  op: "Switch"
  input: "dense_1/Relu"
  input: "dropout_1/cond/pred_id"
  attr {
    key: "T"
    value {
      type: DT_FLOAT
    }
  }
  attr {
    key: "_class"
    value {
      list {
        s: "loc:@dense_1/Relu"
      }
    }
  }
}
node {
  name: "dropout_1/cond/Merge"
  op: "Merge"
  input: "dropout_1/cond/Switch_1"
  input: "dropout_1/cond/dropout/mul"
  attr {
    key: "N"
    value {
      i: 2
    }
  }
  attr {
    key: "T"
    value {
      type: DT_FLOAT
    }
  }
}
node {
  name: "dense_2/random_uniform/shape"
  op: "Const"
  attr {
    key: "dtype"
    value {
      type: DT_INT32
    }
  }
  attr {
    key: "value"
    value {
      tensor {
        dtype: DT_INT32
        tensor_shape {
          dim {
            size: 2
          }
        }
        tensor_content: "\000\004\000\000\000\004\000\000"
      }
    }
  }
}
node {
  name: "dense_2/random_uniform/min"
  op: "Const"
  attr {
    key: "dtype"
    value {
      type: DT_FLOAT
    }
  }
  attr {
    key: "value"
    value {
      tensor {
        dtype: DT_FLOAT
        tensor_shape {
        }
        float_val: -0.0541265867651
      }
    }
  }
}
node {
  name: "dense_2/random_uniform/max"
  op: "Const"
  attr {
    key: "dtype"
    value {
      type: DT_FLOAT
    }
  }
  attr {
    key: "value"
    value {
      tensor {
        dtype: DT_FLOAT
        tensor_shape {
        }
        float_val: 0.0541265867651
      }
    }
  }
}
node {
  name: "dense_2/random_uniform/RandomUniform"
  op: "RandomUniform"
  input: "dense_2/random_uniform/shape"
  attr {
    key: "T"
    value {
      type: DT_INT32
    }
  }
  attr {
    key: "dtype"
    value {
      type: DT_FLOAT
    }
  }
  attr {
    key: "seed"
    value {
      i: 87654321
    }
  }
  attr {
    key: "seed2"
    value {
      i: 3506239
    }
  }
}
node {
  name: "dense_2/random_uniform/sub"
  op: "Sub"
  input: "dense_2/random_uniform/max"
  input: "dense_2/random_uniform/min"
  attr {
    key: "T"
    value {
      type: DT_FLOAT
    }
  }
}
node {
  name: "dense_2/random_uniform/mul"
  op: "Mul"
  input: "dense_2/random_uniform/RandomUniform"
  input: "dense_2/random_uniform/sub"
  attr {
    key: "T"
    value {
      type: DT_FLOAT
    }
  }
}
node {
  name: "dense_2/random_uniform"
  op: "Add"
  input: "dense_2/random_uniform/mul"
  input: "dense_2/random_uniform/min"
  attr {
    key: "T"
    value {
      type: DT_FLOAT
    }
  }
}
node {
  name: "dense_2/kernel"
  op: "VariableV2"
  attr {
    key: "container"
    value {
      s: ""
    }
  }
  attr {
    key: "dtype"
    value {
      type: DT_FLOAT
    }
  }
  attr {
    key: "shape"
    value {
      shape {
        dim {
          size: 1024
        }
        dim {
          size: 1024
        }
      }
    }
  }
  attr {
    key: "shared_name"
    value {
      s: ""
    }
  }
}
node {
  name: "dense_2/kernel/Assign"
  op: "Assign"
  input: "dense_2/kernel"
  input: "dense_2/random_uniform"
  attr {
    key: "T"
    value {
      type: DT_FLOAT
    }
  }
  attr {
    key: "_class"
    value {
      list {
        s: "loc:@dense_2/kernel"
      }
    }
  }
  attr {
    key: "use_locking"
    value {
      b: true
    }
  }
  attr {
    key: "validate_shape"
    value {
      b: true
    }
  }
}
node {
  name: "dense_2/kernel/read"
  op: "Identity"
  input: "dense_2/kernel"
  attr {
    key: "T"
    value {
      type: DT_FLOAT
    }
  }
  attr {
    key: "_class"
    value {
      list {
        s: "loc:@dense_2/kernel"
      }
    }
  }
}
node {
  name: "dense_2/Const"
  op: "Const"
  attr {
    key: "dtype"
    value {
      type: DT_FLOAT
    }
  }
  attr {
    key: "value"
    value {
      tensor {
        dtype: DT_FLOAT
        tensor_shape {
          dim {
            size: 1024
          }
        }
        float_val: 0.0
      }
    }
  }
}
node {
  name: "dense_2/bias"
  op: "VariableV2"
  attr {
    key: "container"
    value {
      s: ""
    }
  }
  attr {
    key: "dtype"
    value {
      type: DT_FLOAT
    }
  }
  attr {
    key: "shape"
    value {
      shape {
        dim {
          size: 1024
        }
      }
    }
  }
  attr {
    key: "shared_name"
    value {
      s: ""
    }
  }
}
node {
  name: "dense_2/bias/Assign"
  op: "Assign"
  input: "dense_2/bias"
  input: "dense_2/Const"
  attr {
    key: "T"
    value {
      type: DT_FLOAT
    }
  }
  attr {
    key: "_class"
    value {
      list {
        s: "loc:@dense_2/bias"
      }
    }
  }
  attr {
    key: "use_locking"
    value {
      b: true
    }
  }
  attr {
    key: "validate_shape"
    value {
      b: true
    }
  }
}
node {
  name: "dense_2/bias/read"
  op: "Identity"
  input: "dense_2/bias"
  attr {
    key: "T"
    value {
      type: DT_FLOAT
    }
  }
  attr {
    key: "_class"
    value {
      list {
        s: "loc:@dense_2/bias"
      }
    }
  }
}
node {
  name: "dense_2/MatMul"
  op: "MatMul"
  input: "dropout_1/cond/Merge"
  input: "dense_2/kernel/read"
  attr {
    key: "T"
    value {
      type: DT_FLOAT
    }
  }
  attr {
    key: "transpose_a"
    value {
      b: false
    }
  }
  attr {
    key: "transpose_b"
    value {
      b: false
    }
  }
}
node {
  name: "dense_2/BiasAdd"
  op: "BiasAdd"
  input: "dense_2/MatMul"
  input: "dense_2/bias/read"
  attr {
    key: "T"
    value {
      type: DT_FLOAT
    }
  }
  attr {
    key: "data_format"
    value {
      s: "NHWC"
    }
  }
}
node {
  name: "dense_2/Relu"
  op: "Relu"
  input: "dense_2/BiasAdd"
  attr {
    key: "T"
    value {
      type: DT_FLOAT
    }
  }
}
node {
  name: "dense_3/random_uniform/shape"
  op: "Const"
  attr {
    key: "dtype"
    value {
      type: DT_INT32
    }
  }
  attr {
    key: "value"
    value {
      tensor {
        dtype: DT_INT32
        tensor_shape {
          dim {
            size: 2
          }
        }
        tensor_content: "\000\004\000\000\n\000\000\000"
      }
    }
  }
}
node {
  name: "dense_3/random_uniform/min"
  op: "Const"
  attr {
    key: "dtype"
    value {
      type: DT_FLOAT
    }
  }
  attr {
    key: "value"
    value {
      tensor {
        dtype: DT_FLOAT
        tensor_shape {
        }
        float_val: -0.0761755108833
      }
    }
  }
}
node {
  name: "dense_3/random_uniform/max"
  op: "Const"
  attr {
    key: "dtype"
    value {
      type: DT_FLOAT
    }
  }
  attr {
    key: "value"
    value {
      tensor {
        dtype: DT_FLOAT
        tensor_shape {
        }
        float_val: 0.0761755108833
      }
    }
  }
}
node {
  name: "dense_3/random_uniform/RandomUniform"
  op: "RandomUniform"
  input: "dense_3/random_uniform/shape"
  attr {
    key: "T"
    value {
      type: DT_INT32
    }
  }
  attr {
    key: "dtype"
    value {
      type: DT_FLOAT
    }
  }
  attr {
    key: "seed"
    value {
      i: 87654321
    }
  }
  attr {
    key: "seed2"
    value {
      i: 1428162
    }
  }
}
node {
  name: "dense_3/random_uniform/sub"
  op: "Sub"
  input: "dense_3/random_uniform/max"
  input: "dense_3/random_uniform/min"
  attr {
    key: "T"
    value {
      type: DT_FLOAT
    }
  }
}
node {
  name: "dense_3/random_uniform/mul"
  op: "Mul"
  input: "dense_3/random_uniform/RandomUniform"
  input: "dense_3/random_uniform/sub"
  attr {
    key: "T"
    value {
      type: DT_FLOAT
    }
  }
}
node {
  name: "dense_3/random_uniform"
  op: "Add"
  input: "dense_3/random_uniform/mul"
  input: "dense_3/random_uniform/min"
  attr {
    key: "T"
    value {
      type: DT_FLOAT
    }
  }
}
node {
  name: "dense_3/kernel"
  op: "VariableV2"
  attr {
    key: "container"
    value {
      s: ""
    }
  }
  attr {
    key: "dtype"
    value {
      type: DT_FLOAT
    }
  }
  attr {
    key: "shape"
    value {
      shape {
        dim {
          size: 1024
        }
        dim {
          size: 10
        }
      }
    }
  }
  attr {
    key: "shared_name"
    value {
      s: ""
    }
  }
}
node {
  name: "dense_3/kernel/Assign"
  op: "Assign"
  input: "dense_3/kernel"
  input: "dense_3/random_uniform"
  attr {
    key: "T"
    value {
      type: DT_FLOAT
    }
  }
  attr {
    key: "_class"
    value {
      list {
        s: "loc:@dense_3/kernel"
      }
    }
  }
  attr {
    key: "use_locking"
    value {
      b: true
    }
  }
  attr {
    key: "validate_shape"
    value {
      b: true
    }
  }
}
node {
  name: "dense_3/kernel/read"
  op: "Identity"
  input: "dense_3/kernel"
  attr {
    key: "T"
    value {
      type: DT_FLOAT
    }
  }
  attr {
    key: "_class"
    value {
      list {
        s: "loc:@dense_3/kernel"
      }
    }
  }
}
node {
  name: "dense_3/Const"
  op: "Const"
  attr {
    key: "dtype"
    value {
      type: DT_FLOAT
    }
  }
  attr {
    key: "value"
    value {
      tensor {
        dtype: DT_FLOAT
        tensor_shape {
          dim {
            size: 10
          }
        }
        float_val: 0.0
      }
    }
  }
}
node {
  name: "dense_3/bias"
  op: "VariableV2"
  attr {
    key: "container"
    value {
      s: ""
    }
  }
  attr {
    key: "dtype"
    value {
      type: DT_FLOAT
    }
  }
  attr {
    key: "shape"
    value {
      shape {
        dim {
          size: 10
        }
      }
    }
  }
  attr {
    key: "shared_name"
    value {
      s: ""
    }
  }
}
node {
  name: "dense_3/bias/Assign"
  op: "Assign"
  input: "dense_3/bias"
  input: "dense_3/Const"
  attr {
    key: "T"
    value {
      type: DT_FLOAT
    }
  }
  attr {
    key: "_class"
    value {
      list {
        s: "loc:@dense_3/bias"
      }
    }
  }
  attr {
    key: "use_locking"
    value {
      b: true
    }
  }
  attr {
    key: "validate_shape"
    value {
      b: true
    }
  }
}
node {
  name: "dense_3/bias/read"
  op: "Identity"
  input: "dense_3/bias"
  attr {
    key: "T"
    value {
      type: DT_FLOAT
    }
  }
  attr {
    key: "_class"
    value {
      list {
        s: "loc:@dense_3/bias"
      }
    }
  }
}
node {
  name: "dense_3/MatMul"
  op: "MatMul"
  input: "dense_2/Relu"
  input: "dense_3/kernel/read"
  attr {
    key: "T"
    value {
      type: DT_FLOAT
    }
  }
  attr {
    key: "transpose_a"
    value {
      b: false
    }
  }
  attr {
    key: "transpose_b"
    value {
      b: false
    }
  }
}
node {
  name: "dense_3/BiasAdd"
  op: "BiasAdd"
  input: "dense_3/MatMul"
  input: "dense_3/bias/read"
  attr {
    key: "T"
    value {
      type: DT_FLOAT
    }
  }
  attr {
    key: "data_format"
    value {
      s: "NHWC"
    }
  }
}
node {
  name: "dense_3/Softmax"
  op: "Softmax"
  input: "dense_3/BiasAdd"
  attr {
    key: "T"
    value {
      type: DT_FLOAT
    }
  }
}
node {
  name: "SGD/iterations/initial_value"
  op: "Const"
  attr {
    key: "dtype"
    value {
      type: DT_INT64
    }
  }
  attr {
    key: "value"
    value {
      tensor {
        dtype: DT_INT64
        tensor_shape {
        }
        int64_val: 0
      }
    }
  }
}
node {
  name: "SGD/iterations"
  op: "VariableV2"
  attr {
    key: "container"
    value {
      s: ""
    }
  }
  attr {
    key: "dtype"
    value {
      type: DT_INT64
    }
  }
  attr {
    key: "shape"
    value {
      shape {
      }
    }
  }
  attr {
    key: "shared_name"
    value {
      s: ""
    }
  }
}
node {
  name: "SGD/iterations/Assign"
  op: "Assign"
  input: "SGD/iterations"
  input: "SGD/iterations/initial_value"
  attr {
    key: "T"
    value {
      type: DT_INT64
    }
  }
  attr {
    key: "_class"
    value {
      list {
        s: "loc:@SGD/iterations"
      }
    }
  }
  attr {
    key: "use_locking"
    value {
      b: true
    }
  }
  attr {
    key: "validate_shape"
    value {
      b: true
    }
  }
}
node {
  name: "SGD/iterations/read"
  op: "Identity"
  input: "SGD/iterations"
  attr {
    key: "T"
    value {
      type: DT_INT64
    }
  }
  attr {
    key: "_class"
    value {
      list {
        s: "loc:@SGD/iterations"
      }
    }
  }
}
node {
  name: "SGD/lr/initial_value"
  op: "Const"
  attr {
    key: "dtype"
    value {
      type: DT_FLOAT
    }
  }
  attr {
    key: "value"
    value {
      tensor {
        dtype: DT_FLOAT
        tensor_shape {
        }
        float_val: 9.99999974738e-05
      }
    }
  }
}
node {
  name: "SGD/lr"
  op: "VariableV2"
  attr {
    key: "container"
    value {
      s: ""
    }
  }
  attr {
    key: "dtype"
    value {
      type: DT_FLOAT
    }
  }
  attr {
    key: "shape"
    value {
      shape {
      }
    }
  }
  attr {
    key: "shared_name"
    value {
      s: ""
    }
  }
}
node {
  name: "SGD/lr/Assign"
  op: "Assign"
  input: "SGD/lr"
  input: "SGD/lr/initial_value"
  attr {
    key: "T"
    value {
      type: DT_FLOAT
    }
  }
  attr {
    key: "_class"
    value {
      list {
        s: "loc:@SGD/lr"
      }
    }
  }
  attr {
    key: "use_locking"
    value {
      b: true
    }
  }
  attr {
    key: "validate_shape"
    value {
      b: true
    }
  }
}
node {
  name: "SGD/lr/read"
  op: "Identity"
  input: "SGD/lr"
  attr {
    key: "T"
    value {
      type: DT_FLOAT
    }
  }
  attr {
    key: "_class"
    value {
      list {
        s: "loc:@SGD/lr"
      }
    }
  }
}
node {
  name: "SGD/momentum/initial_value"
  op: "Const"
  attr {
    key: "dtype"
    value {
      type: DT_FLOAT
    }
  }
  attr {
    key: "value"
    value {
      tensor {
        dtype: DT_FLOAT
        tensor_shape {
        }
        float_val: 0.899999976158
      }
    }
  }
}
node {
  name: "SGD/momentum"
  op: "VariableV2"
  attr {
    key: "container"
    value {
      s: ""
    }
  }
  attr {
    key: "dtype"
    value {
      type: DT_FLOAT
    }
  }
  attr {
    key: "shape"
    value {
      shape {
      }
    }
  }
  attr {
    key: "shared_name"
    value {
      s: ""
    }
  }
}
node {
  name: "SGD/momentum/Assign"
  op: "Assign"
  input: "SGD/momentum"
  input: "SGD/momentum/initial_value"
  attr {
    key: "T"
    value {
      type: DT_FLOAT
    }
  }
  attr {
    key: "_class"
    value {
      list {
        s: "loc:@SGD/momentum"
      }
    }
  }
  attr {
    key: "use_locking"
    value {
      b: true
    }
  }
  attr {
    key: "validate_shape"
    value {
      b: true
    }
  }
}
node {
  name: "SGD/momentum/read"
  op: "Identity"
  input: "SGD/momentum"
  attr {
    key: "T"
    value {
      type: DT_FLOAT
    }
  }
  attr {
    key: "_class"
    value {
      list {
        s: "loc:@SGD/momentum"
      }
    }
  }
}
node {
  name: "SGD/decay/initial_value"
  op: "Const"
  attr {
    key: "dtype"
    value {
      type: DT_FLOAT
    }
  }
  attr {
    key: "value"
    value {
      tensor {
        dtype: DT_FLOAT
        tensor_shape {
        }
        float_val: 0.0
      }
    }
  }
}
node {
  name: "SGD/decay"
  op: "VariableV2"
  attr {
    key: "container"
    value {
      s: ""
    }
  }
  attr {
    key: "dtype"
    value {
      type: DT_FLOAT
    }
  }
  attr {
    key: "shape"
    value {
      shape {
      }
    }
  }
  attr {
    key: "shared_name"
    value {
      s: ""
    }
  }
}
node {
  name: "SGD/decay/Assign"
  op: "Assign"
  input: "SGD/decay"
  input: "SGD/decay/initial_value"
  attr {
    key: "T"
    value {
      type: DT_FLOAT
    }
  }
  attr {
    key: "_class"
    value {
      list {
        s: "loc:@SGD/decay"
      }
    }
  }
  attr {
    key: "use_locking"
    value {
      b: true
    }
  }
  attr {
    key: "validate_shape"
    value {
      b: true
    }
  }
}
node {
  name: "SGD/decay/read"
  op: "Identity"
  input: "SGD/decay"
  attr {
    key: "T"
    value {
      type: DT_FLOAT
    }
  }
  attr {
    key: "_class"
    value {
      list {
        s: "loc:@SGD/decay"
      }
    }
  }
}
node {
  name: "dense_3_target"
  op: "Placeholder"
  attr {
    key: "dtype"
    value {
      type: DT_FLOAT
    }
  }
  attr {
    key: "shape"
    value {
      shape {
        dim {
          size: -1
        }
        dim {
          size: -1
        }
      }
    }
  }
}
node {
  name: "dense_3_sample_weights"
  op: "Placeholder"
  attr {
    key: "dtype"
    value {
      type: DT_FLOAT
    }
  }
  attr {
    key: "shape"
    value {
      shape {
        dim {
          size: -1
        }
      }
    }
  }
}
node {
  name: "loss/dense_3_loss/Sum/reduction_indices"
  op: "Const"
  attr {
    key: "dtype"
    value {
      type: DT_INT32
    }
  }
  attr {
    key: "value"
    value {
      tensor {
        dtype: DT_INT32
        tensor_shape {
        }
        int_val: 1
      }
    }
  }
}
node {
  name: "loss/dense_3_loss/Sum"
  op: "Sum"
  input: "dense_3/Softmax"
  input: "loss/dense_3_loss/Sum/reduction_indices"
  attr {
    key: "T"
    value {
      type: DT_FLOAT
    }
  }
  attr {
    key: "Tidx"
    value {
      type: DT_INT32
    }
  }
  attr {
    key: "keep_dims"
    value {
      b: true
    }
  }
}
node {
  name: "loss/dense_3_loss/div"
  op: "RealDiv"
  input: "dense_3/Softmax"
  input: "loss/dense_3_loss/Sum"
  attr {
    key: "T"
    value {
      type: DT_FLOAT
    }
  }
}
node {
  name: "loss/dense_3_loss/Const"
  op: "Const"
  attr {
    key: "dtype"
    value {
      type: DT_FLOAT
    }
  }
  attr {
    key: "value"
    value {
      tensor {
        dtype: DT_FLOAT
        tensor_shape {
        }
        float_val: 1.00000001169e-07
      }
    }
  }
}
node {
  name: "loss/dense_3_loss/sub/x"
  op: "Const"
  attr {
    key: "dtype"
    value {
      type: DT_FLOAT
    }
  }
  attr {
    key: "value"
    value {
      tensor {
        dtype: DT_FLOAT
        tensor_shape {
        }
        float_val: 1.0
      }
    }
  }
}
node {
  name: "loss/dense_3_loss/sub"
  op: "Sub"
  input: "loss/dense_3_loss/sub/x"
  input: "loss/dense_3_loss/Const"
  attr {
    key: "T"
    value {
      type: DT_FLOAT
    }
  }
}
node {
  name: "loss/dense_3_loss/clip_by_value/Minimum"
  op: "Minimum"
  input: "loss/dense_3_loss/div"
  input: "loss/dense_3_loss/sub"
  attr {
    key: "T"
    value {
      type: DT_FLOAT
    }
  }
}
node {
  name: "loss/dense_3_loss/clip_by_value"
  op: "Maximum"
  input: "loss/dense_3_loss/clip_by_value/Minimum"
  input: "loss/dense_3_loss/Const"
  attr {
    key: "T"
    value {
      type: DT_FLOAT
    }
  }
}
node {
  name: "loss/dense_3_loss/Log"
  op: "Log"
  input: "loss/dense_3_loss/clip_by_value"
  attr {
    key: "T"
    value {
      type: DT_FLOAT
    }
  }
}
node {
  name: "loss/dense_3_loss/mul"
  op: "Mul"
  input: "dense_3_target"
  input: "loss/dense_3_loss/Log"
  attr {
    key: "T"
    value {
      type: DT_FLOAT
    }
  }
}
node {
  name: "loss/dense_3_loss/Sum_1/reduction_indices"
  op: "Const"
  attr {
    key: "dtype"
    value {
      type: DT_INT32
    }
  }
  attr {
    key: "value"
    value {
      tensor {
        dtype: DT_INT32
        tensor_shape {
        }
        int_val: 1
      }
    }
  }
}
node {
  name: "loss/dense_3_loss/Sum_1"
  op: "Sum"
  input: "loss/dense_3_loss/mul"
  input: "loss/dense_3_loss/Sum_1/reduction_indices"
  attr {
    key: "T"
    value {
      type: DT_FLOAT
    }
  }
  attr {
    key: "Tidx"
    value {
      type: DT_INT32
    }
  }
  attr {
    key: "keep_dims"
    value {
      b: false
    }
  }
}
node {
  name: "loss/dense_3_loss/Neg"
  op: "Neg"
  input: "loss/dense_3_loss/Sum_1"
  attr {
    key: "T"
    value {
      type: DT_FLOAT
    }
  }
}
node {
  name: "loss/dense_3_loss/Mean/reduction_indices"
  op: "Const"
  attr {
    key: "dtype"
    value {
      type: DT_INT32
    }
  }
  attr {
    key: "value"
    value {
      tensor {
        dtype: DT_INT32
        tensor_shape {
          dim {
          }
        }
      }
    }
  }
}
node {
  name: "loss/dense_3_loss/Mean"
  op: "Mean"
  input: "loss/dense_3_loss/Neg"
  input: "loss/dense_3_loss/Mean/reduction_indices"
  attr {
    key: "T"
    value {
      type: DT_FLOAT
    }
  }
  attr {
    key: "Tidx"
    value {
      type: DT_INT32
    }
  }
  attr {
    key: "keep_dims"
    value {
      b: false
    }
  }
}
node {
  name: "loss/dense_3_loss/mul_1"
  op: "Mul"
  input: "loss/dense_3_loss/Mean"
  input: "dense_3_sample_weights"
  attr {
    key: "T"
    value {
      type: DT_FLOAT
    }
  }
}
node {
  name: "loss/dense_3_loss/NotEqual/y"
  op: "Const"
  attr {
    key: "dtype"
    value {
      type: DT_FLOAT
    }
  }
  attr {
    key: "value"
    value {
      tensor {
        dtype: DT_FLOAT
        tensor_shape {
        }
        float_val: 0.0
      }
    }
  }
}
node {
  name: "loss/dense_3_loss/NotEqual"
  op: "NotEqual"
  input: "dense_3_sample_weights"
  input: "loss/dense_3_loss/NotEqual/y"
  attr {
    key: "T"
    value {
      type: DT_FLOAT
    }
  }
}
node {
  name: "loss/dense_3_loss/Cast"
  op: "Cast"
  input: "loss/dense_3_loss/NotEqual"
  attr {
    key: "DstT"
    value {
      type: DT_FLOAT
    }
  }
  attr {
    key: "SrcT"
    value {
      type: DT_BOOL
    }
  }
}
node {
  name: "loss/dense_3_loss/Const_1"
  op: "Const"
  attr {
    key: "dtype"
    value {
      type: DT_INT32
    }
  }
  attr {
    key: "value"
    value {
      tensor {
        dtype: DT_INT32
        tensor_shape {
          dim {
            size: 1
          }
        }
        int_val: 0
      }
    }
  }
}
node {
  name: "loss/dense_3_loss/Mean_1"
  op: "Mean"
  input: "loss/dense_3_loss/Cast"
  input: "loss/dense_3_loss/Const_1"
  attr {
    key: "T"
    value {
      type: DT_FLOAT
    }
  }
  attr {
    key: "Tidx"
    value {
      type: DT_INT32
    }
  }
  attr {
    key: "keep_dims"
    value {
      b: false
    }
  }
}
node {
  name: "loss/dense_3_loss/div_1"
  op: "RealDiv"
  input: "loss/dense_3_loss/mul_1"
  input: "loss/dense_3_loss/Mean_1"
  attr {
    key: "T"
    value {
      type: DT_FLOAT
    }
  }
}
node {
  name: "loss/dense_3_loss/Const_2"
  op: "Const"
  attr {
    key: "dtype"
    value {
      type: DT_INT32
    }
  }
  attr {
    key: "value"
    value {
      tensor {
        dtype: DT_INT32
        tensor_shape {
          dim {
            size: 1
          }
        }
        int_val: 0
      }
    }
  }
}
node {
  name: "loss/dense_3_loss/Mean_2"
  op: "Mean"
  input: "loss/dense_3_loss/div_1"
  input: "loss/dense_3_loss/Const_2"
  attr {
    key: "T"
    value {
      type: DT_FLOAT
    }
  }
  attr {
    key: "Tidx"
    value {
      type: DT_INT32
    }
  }
  attr {
    key: "keep_dims"
    value {
      b: false
    }
  }
}
node {
  name: "loss/mul/x"
  op: "Const"
  attr {
    key: "dtype"
    value {
      type: DT_FLOAT
    }
  }
  attr {
    key: "value"
    value {
      tensor {
        dtype: DT_FLOAT
        tensor_shape {
        }
        float_val: 1.0
      }
    }
  }
}
node {
  name: "loss/mul"
  op: "Mul"
  input: "loss/mul/x"
  input: "loss/dense_3_loss/Mean_2"
  attr {
    key: "T"
    value {
      type: DT_FLOAT
    }
  }
}
node {
  name: "metrics/acc/ArgMax/dimension"
  op: "Const"
  attr {
    key: "dtype"
    value {
      type: DT_INT32
    }
  }
  attr {
    key: "value"
    value {
      tensor {
        dtype: DT_INT32
        tensor_shape {
        }
        int_val: -1
      }
    }
  }
}
node {
  name: "metrics/acc/ArgMax"
  op: "ArgMax"
  input: "dense_3_target"
  input: "metrics/acc/ArgMax/dimension"
  attr {
    key: "T"
    value {
      type: DT_FLOAT
    }
  }
  attr {
    key: "Tidx"
    value {
      type: DT_INT32
    }
  }
  attr {
    key: "output_type"
    value {
      type: DT_INT64
    }
  }
}
node {
  name: "metrics/acc/ArgMax_1/dimension"
  op: "Const"
  attr {
    key: "dtype"
    value {
      type: DT_INT32
    }
  }
  attr {
    key: "value"
    value {
      tensor {
        dtype: DT_INT32
        tensor_shape {
        }
        int_val: -1
      }
    }
  }
}
node {
  name: "metrics/acc/ArgMax_1"
  op: "ArgMax"
  input: "dense_3/Softmax"
  input: "metrics/acc/ArgMax_1/dimension"
  attr {
    key: "T"
    value {
      type: DT_FLOAT
    }
  }
  attr {
    key: "Tidx"
    value {
      type: DT_INT32
    }
  }
  attr {
    key: "output_type"
    value {
      type: DT_INT64
    }
  }
}
node {
  name: "metrics/acc/Equal"
  op: "Equal"
  input: "metrics/acc/ArgMax"
  input: "metrics/acc/ArgMax_1"
  attr {
    key: "T"
    value {
      type: DT_INT64
    }
  }
}
node {
  name: "metrics/acc/Cast"
  op: "Cast"
  input: "metrics/acc/Equal"
  attr {
    key: "DstT"
    value {
      type: DT_FLOAT
    }
  }
  attr {
    key: "SrcT"
    value {
      type: DT_BOOL
    }
  }
}
node {
  name: "metrics/acc/Const"
  op: "Const"
  attr {
    key: "dtype"
    value {
      type: DT_INT32
    }
  }
  attr {
    key: "value"
    value {
      tensor {
        dtype: DT_INT32
        tensor_shape {
          dim {
            size: 1
          }
        }
        int_val: 0
      }
    }
  }
}
node {
  name: "metrics/acc/Mean"
  op: "Mean"
  input: "metrics/acc/Cast"
  input: "metrics/acc/Const"
  attr {
    key: "T"
    value {
      type: DT_FLOAT
    }
  }
  attr {
    key: "Tidx"
    value {
      type: DT_INT32
    }
  }
  attr {
    key: "keep_dims"
    value {
      b: false
    }
  }
}
node {
  name: "save/Const"
  op: "Const"
  attr {
    key: "dtype"
    value {
      type: DT_STRING
    }
  }
  attr {
    key: "value"
    value {
      tensor {
        dtype: DT_STRING
        tensor_shape {
        }
        string_val: "model"
      }
    }
  }
}
node {
  name: "save/SaveV2/tensor_names"
  op: "Const"
  attr {
    key: "dtype"
    value {
      type: DT_STRING
    }
  }
  attr {
    key: "value"
    value {
      tensor {
        dtype: DT_STRING
        tensor_shape {
          dim {
            size: 36
          }
        }
        string_val: "SGD/decay"
        string_val: "SGD/iterations"
        string_val: "SGD/lr"
        string_val: "SGD/momentum"
        string_val: "block1_conv1/bias"
        string_val: "block1_conv1/kernel"
        string_val: "block1_conv2/bias"
        string_val: "block1_conv2/kernel"
        string_val: "block2_conv1/bias"
        string_val: "block2_conv1/kernel"
        string_val: "block2_conv2/bias"
        string_val: "block2_conv2/kernel"
        string_val: "block3_conv1/bias"
        string_val: "block3_conv1/kernel"
        string_val: "block3_conv2/bias"
        string_val: "block3_conv2/kernel"
        string_val: "block3_conv3/bias"
        string_val: "block3_conv3/kernel"
        string_val: "block4_conv1/bias"
        string_val: "block4_conv1/kernel"
        string_val: "block4_conv2/bias"
        string_val: "block4_conv2/kernel"
        string_val: "block4_conv3/bias"
        string_val: "block4_conv3/kernel"
        string_val: "block5_conv1/bias"
        string_val: "block5_conv1/kernel"
        string_val: "block5_conv2/bias"
        string_val: "block5_conv2/kernel"
        string_val: "block5_conv3/bias"
        string_val: "block5_conv3/kernel"
        string_val: "dense_1/bias"
        string_val: "dense_1/kernel"
        string_val: "dense_2/bias"
        string_val: "dense_2/kernel"
        string_val: "dense_3/bias"
        string_val: "dense_3/kernel"
      }
    }
  }
}
node {
  name: "save/SaveV2/shape_and_slices"
  op: "Const"
  attr {
    key: "dtype"
    value {
      type: DT_STRING
    }
  }
  attr {
    key: "value"
    value {
      tensor {
        dtype: DT_STRING
        tensor_shape {
          dim {
            size: 36
          }
        }
        string_val: ""
        string_val: ""
        string_val: ""
        string_val: ""
        string_val: ""
        string_val: ""
        string_val: ""
        string_val: ""
        string_val: ""
        string_val: ""
        string_val: ""
        string_val: ""
        string_val: ""
        string_val: ""
        string_val: ""
        string_val: ""
        string_val: ""
        string_val: ""
        string_val: ""
        string_val: ""
        string_val: ""
        string_val: ""
        string_val: ""
        string_val: ""
        string_val: ""
        string_val: ""
        string_val: ""
        string_val: ""
        string_val: ""
        string_val: ""
        string_val: ""
        string_val: ""
        string_val: ""
        string_val: ""
        string_val: ""
        string_val: ""
      }
    }
  }
}
node {
  name: "save/SaveV2"
  op: "SaveV2"
  input: "save/Const"
  input: "save/SaveV2/tensor_names"
  input: "save/SaveV2/shape_and_slices"
  input: "SGD/decay"
  input: "SGD/iterations"
  input: "SGD/lr"
  input: "SGD/momentum"
  input: "block1_conv1/bias"
  input: "block1_conv1/kernel"
  input: "block1_conv2/bias"
  input: "block1_conv2/kernel"
  input: "block2_conv1/bias"
  input: "block2_conv1/kernel"
  input: "block2_conv2/bias"
  input: "block2_conv2/kernel"
  input: "block3_conv1/bias"
  input: "block3_conv1/kernel"
  input: "block3_conv2/bias"
  input: "block3_conv2/kernel"
  input: "block3_conv3/bias"
  input: "block3_conv3/kernel"
  input: "block4_conv1/bias"
  input: "block4_conv1/kernel"
  input: "block4_conv2/bias"
  input: "block4_conv2/kernel"
  input: "block4_conv3/bias"
  input: "block4_conv3/kernel"
  input: "block5_conv1/bias"
  input: "block5_conv1/kernel"
  input: "block5_conv2/bias"
  input: "block5_conv2/kernel"
  input: "block5_conv3/bias"
  input: "block5_conv3/kernel"
  input: "dense_1/bias"
  input: "dense_1/kernel"
  input: "dense_2/bias"
  input: "dense_2/kernel"
  input: "dense_3/bias"
  input: "dense_3/kernel"
  attr {
    key: "dtypes"
    value {
      list {
        type: DT_FLOAT
        type: DT_INT64
        type: DT_FLOAT
        type: DT_FLOAT
        type: DT_FLOAT
        type: DT_FLOAT
        type: DT_FLOAT
        type: DT_FLOAT
        type: DT_FLOAT
        type: DT_FLOAT
        type: DT_FLOAT
        type: DT_FLOAT
        type: DT_FLOAT
        type: DT_FLOAT
        type: DT_FLOAT
        type: DT_FLOAT
        type: DT_FLOAT
        type: DT_FLOAT
        type: DT_FLOAT
        type: DT_FLOAT
        type: DT_FLOAT
        type: DT_FLOAT
        type: DT_FLOAT
        type: DT_FLOAT
        type: DT_FLOAT
        type: DT_FLOAT
        type: DT_FLOAT
        type: DT_FLOAT
        type: DT_FLOAT
        type: DT_FLOAT
        type: DT_FLOAT
        type: DT_FLOAT
        type: DT_FLOAT
        type: DT_FLOAT
        type: DT_FLOAT
        type: DT_FLOAT
      }
    }
  }
}
node {
  name: "save/control_dependency"
  op: "Identity"
  input: "save/Const"
  input: "^save/SaveV2"
  attr {
    key: "T"
    value {
      type: DT_STRING
    }
  }
  attr {
    key: "_class"
    value {
      list {
        s: "loc:@save/Const"
      }
    }
  }
}
node {
…
}
node {
  name: "save/RestoreV2/shape_and_slices"
  op: "Const"
  attr {
    key: "dtype"
    value {
      type: DT_STRING
    }
  }
  attr {
    key: "value"
    value {
      tensor {
        dtype: DT_STRING
        tensor_shape {
          dim {
            size: 1
          }
        }
        string_val: ""
      }
    }
  }
}
node {
  name: "save/RestoreV2"
  op: "RestoreV2"
  input: "save/Const"
  input: "save/RestoreV2/tensor_names"
  input: "save/RestoreV2/shape_and_slices"
  attr {
    key: "dtypes"
    value {
      list {
        type: DT_FLOAT
      }
    }
  }
}
node {
  name: "save/Assign"
  op: "Assign"
  input: "SGD/decay"
  input: "save/RestoreV2"
  attr {
    key: "T"
    value {
      type: DT_FLOAT
    }
  }
  attr {
    key: "_class"
    value {
      list {
        s: "loc:@SGD/decay"
      }
    }
  }
  attr {
    key: "use_locking"
    value {
      b: true
    }
  }
  attr {
    key: "validate_shape"
    value {
      b: true
    }
  }
}
node {
  name: "save/RestoreV2_1/tensor_names"
  op: "Const"
  attr {
    key: "dtype"
    value {
      type: DT_STRING
    }
  }
  attr {
    key: "value"
    value {
      tensor {
        dtype: DT_STRING
        tensor_shape {
          dim {
            size: 1
          }
        }
        string_val: "SGD/iterations"
      }
    }
  }
}
node {
  name: "save/RestoreV2_1/shape_and_slices"
  op: "Const"
  attr {
    key: "dtype"
    value {
      type: DT_STRING
    }
  }
  attr {
    key: "value"
    value {
      tensor {
        dtype: DT_STRING
        tensor_shape {
          dim {
            size: 1
          }
        }
        string_val: ""
      }
    }
  }
}
node {
  name: "save/RestoreV2_1"
  op: "RestoreV2"
  input: "save/Const"
  input: "save/RestoreV2_1/tensor_names"
  input: "save/RestoreV2_1/shape_and_slices"
  attr {
    key: "dtypes"
    value {
      list {
        type: DT_INT64
      }
    }
  }
}
node {
  name: "save/Assign_1"
  op: "Assign"
  input: "SGD/iterations"
  input: "save/RestoreV2_1"
  attr {
    key: "T"
    value {
      type: DT_INT64
    }
  }
  attr {
    key: "_class"
    value {
      list {
        s: "loc:@SGD/iterations"
      }
    }
  }
  attr {
    key: "use_locking"
    value {
      b: true
    }
  }
  attr {
    key: "validate_shape"
    value {
      b: true
    }
  }
}
node {
  name: "save/RestoreV2_2/tensor_names"
  op: "Const"
  attr {
    key: "dtype"
    value {
      type: DT_STRING
    }
  }
  attr {
    key: "value"
    value {
      tensor {
        dtype: DT_STRING
        tensor_shape {
          dim {
            size: 1
          }
        }
        string_val: "SGD/lr"
      }
    }
  }
}
node {
  name: "save/RestoreV2_2/shape_and_slices"
  op: "Const"
  attr {
    key: "dtype"
    value {
      type: DT_STRING
    }
  }
  attr {
    key: "value"
    value {
      tensor {
        dtype: DT_STRING
        tensor_shape {
          dim {
            size: 1
          }
        }
        string_val: ""
      }
    }
  }
}
node {
  name: "save/RestoreV2_2"
  op: "RestoreV2"
  input: "save/Const"
  input: "save/RestoreV2_2/tensor_names"
  input: "save/RestoreV2_2/shape_and_slices"
  attr {
    key: "dtypes"
    value {
      list {
        type: DT_FLOAT
      }
    }
  }
}
node {
  name: "save/Assign_2"
  op: "Assign"
  input: "SGD/lr"
  input: "save/RestoreV2_2"
  attr {
    key: "T"
    value {
      type: DT_FLOAT
    }
  }
  attr {
    key: "_class"
    value {
      list {
        s: "loc:@SGD/lr"
      }
    }
  }
  attr {
    key: "use_locking"
    value {
      b: true
    }
  }
  attr {
    key: "validate_shape"
    value {
      b: true
    }
  }
}
node {
  name: "save/RestoreV2_3/tensor_names"
  op: "Const"
  attr {
    key: "dtype"
    value {
      type: DT_STRING
    }
  }
  attr {
    key: "value"
    value {
      tensor {
        dtype: DT_STRING
        tensor_shape {
          dim {
            size: 1
          }
        }
        string_val: "SGD/momentum"
      }
    }
  }
}
node {
  name: "save/RestoreV2_3/shape_and_slices"
  op: "Const"
  attr {
    key: "dtype"
    value {
      type: DT_STRING
    }
  }
  attr {
    key: "value"
    value {
      tensor {
        dtype: DT_STRING
        tensor_shape {
          dim {
            size: 1
          }
        }
        string_val: ""
      }
    }
  }
}
node {
  name: "save/RestoreV2_3"
  op: "RestoreV2"
  input: "save/Const"
  input: "save/RestoreV2_3/tensor_names"
  input: "save/RestoreV2_3/shape_and_slices"
  attr {
    key: "dtypes"
    value {
      list {
        type: DT_FLOAT
      }
    }
  }
}
node {
  name: "save/Assign_3"
  op: "Assign"
  input: "SGD/momentum"
  input: "save/RestoreV2_3"
  attr {
    key: "T"
    value {
      type: DT_FLOAT
    }
  }
  attr {
    key: "_class"
    value {
      list {
        s: "loc:@SGD/momentum"
      }
    }
  }
  attr {
    key: "use_locking"
    value {
      b: true
    }
  }
  attr {
    key: "validate_shape"
    value {
      b: true
    }
  }
}
node {
  name: "save/RestoreV2_4/tensor_names"
  op: "Const"
  attr {
    key: "dtype"
    value {
      type: DT_STRING
    }
  }
  attr {
    key: "value"
    value {
      tensor {
        dtype: DT_STRING
        tensor_shape {
          dim {
            size: 1
          }
        }
        string_val: "block1_conv1/bias"
      }
    }
  }
}
node {
  name: "save/RestoreV2_4/shape_and_slices"
  op: "Const"
  attr {
    key: "dtype"
    value {
      type: DT_STRING
    }
  }
  attr {
    key: "value"
    value {
      tensor {
        dtype: DT_STRING
        tensor_shape {
          dim {
            size: 1
          }
        }
        string_val: ""
      }
    }
  }
}
node {
  name: "save/RestoreV2_4"
  op: "RestoreV2"
  input: "save/Const"
  input: "save/RestoreV2_4/tensor_names"
  input: "save/RestoreV2_4/shape_and_slices"
  attr {
    key: "dtypes"
    value {
      list {
        type: DT_FLOAT
      }
    }
  }
}
node {
  name: "save/Assign_4"
  op: "Assign"
  input: "block1_conv1/bias"
  input: "save/RestoreV2_4"
  attr {
    key: "T"
    value {
      type: DT_FLOAT
    }
  }
  attr {
    key: "_class"
    value {
      list {
        s: "loc:@block1_conv1/bias"
      }
    }
  }
  attr {
    key: "use_locking"
    value {
      b: true
    }
  }
  attr {
    key: "validate_shape"
    value {
      b: true
    }
  }
}
node {
  name: "save/RestoreV2_5/tensor_names"
  op: "Const"
  attr {
    key: "dtype"
    value {
      type: DT_STRING
    }
  }
  attr {
    key: "value"
    value {
      tensor {
        dtype: DT_STRING
        tensor_shape {
          dim {
            size: 1
          }
        }
        string_val: "block1_conv1/kernel"
      }
    }
  }
}
node {
  name: "save/RestoreV2_5/shape_and_slices"
  op: "Const"
  attr {
    key: "dtype"
    value {
      type: DT_STRING
    }
  }
  attr {
    key: "value"
    value {
      tensor {
        dtype: DT_STRING
        tensor_shape {
          dim {
            size: 1
          }
        }
        string_val: ""
      }
    }
  }
}
node {
  name: "save/RestoreV2_5"
  op: "RestoreV2"
  input: "save/Const"
  input: "save/RestoreV2_5/tensor_names"
  input: "save/RestoreV2_5/shape_and_slices"
  attr {
    key: "dtypes"
    value {
      list {
        type: DT_FLOAT
      }
    }
  }
}
node {
  name: "save/Assign_5"
  op: "Assign"
  input: "block1_conv1/kernel"
  input: "save/RestoreV2_5"
  attr {
    key: "T"
    value {
      type: DT_FLOAT
    }
  }
  attr {
    key: "_class"
    value {
      list {
        s: "loc:@block1_conv1/kernel"
      }
    }
  }
  attr {
    key: "use_locking"
    value {
      b: true
    }
  }
  attr {
    key: "validate_shape"
    value {
      b: true
    }
  }
}
node {
  name: "save/RestoreV2_6/tensor_names"
  op: "Const"
  attr {
    key: "dtype"
    value {
      type: DT_STRING
    }
  }
  attr {
    key: "value"
    value {
      tensor {
        dtype: DT_STRING
        tensor_shape {
          dim {
            size: 1
          }
        }
        string_val: "block1_conv2/bias"
      }
    }
  }
}
node {
  name: "save/RestoreV2_6/shape_and_slices"
  op: "Const"
  attr {
    key: "dtype"
    value {
      type: DT_STRING
    }
  }
  attr {
    key: "value"
    value {
      tensor {
        dtype: DT_STRING
        tensor_shape {
          dim {
            size: 1
          }
        }
        string_val: ""
      }
    }
  }
}
node {
  name: "save/RestoreV2_6"
  op: "RestoreV2"
  input: "save/Const"
  input: "save/RestoreV2_6/tensor_names"
  input: "save/RestoreV2_6/shape_and_slices"
  attr {
    key: "dtypes"
    value {
      list {
        type: DT_FLOAT
      }
    }
  }
}
node {
  name: "save/Assign_6"
  op: "Assign"
  input: "block1_conv2/bias"
  input: "save/RestoreV2_6"
  attr {
    key: "T"
    value {
      type: DT_FLOAT
    }
  }
  attr {
    key: "_class"
    value {
      list {
        s: "loc:@block1_conv2/bias"
      }
    }
  }
  attr {
    key: "use_locking"
    value {
      b: true
    }
  }
  attr {
    key: "validate_shape"
    value {
      b: true
    }
  }
}
node {
  name: "save/RestoreV2_7/tensor_names"
  op: "Const"
  attr {
    key: "dtype"
    value {
      type: DT_STRING
    }
  }
  attr {
    key: "value"
    value {
      tensor {
        dtype: DT_STRING
        tensor_shape {
          dim {
            size: 1
          }
        }
        string_val: "block1_conv2/kernel"
      }
    }
  }
}
node {
  name: "save/RestoreV2_7/shape_and_slices"
  op: "Const"
  attr {
    key: "dtype"
    value {
      type: DT_STRING
    }
  }
  attr {
    key: "value"
    value {
      tensor {
        dtype: DT_STRING
        tensor_shape {
          dim {
            size: 1
          }
        }
        string_val: ""
      }
    }
  }
}
node {
  name: "save/RestoreV2_7"
  op: "RestoreV2"
  input: "save/Const"
  input: "save/RestoreV2_7/tensor_names"
  input: "save/RestoreV2_7/shape_and_slices"
  attr {
    key: "dtypes"
    value {
      list {
        type: DT_FLOAT
      }
    }
  }
}
node {
  name: "save/Assign_7"
  op: "Assign"
  input: "block1_conv2/kernel"
  input: "save/RestoreV2_7"
  attr {
    key: "T"
    value {
      type: DT_FLOAT
    }
  }
  attr {
    key: "_class"
    value {
      list {
        s: "loc:@block1_conv2/kernel"
      }
    }
  }
  attr {
    key: "use_locking"
    value {
      b: true
    }
  }
  attr {
    key: "validate_shape"
    value {
      b: true
    }
  }
}
node {
  name: "save/RestoreV2_8/tensor_names"
  op: "Const"
  attr {
    key: "dtype"
    value {
      type: DT_STRING
    }
  }
  attr {
    key: "value"
    value {
      tensor {
        dtype: DT_STRING
        tensor_shape {
          dim {
            size: 1
          }
        }
        string_val: "block2_conv1/bias"
      }
    }
  }
}
node {
  name: "save/RestoreV2_8/shape_and_slices"
  op: "Const"
  attr {
    key: "dtype"
    value {
      type: DT_STRING
    }
  }
  attr {
    key: "value"
    value {
      tensor {
        dtype: DT_STRING
        tensor_shape {
          dim {
            size: 1
          }
        }
        string_val: ""
      }
    }
  }
}
node {
  name: "save/RestoreV2_8"
  op: "RestoreV2"
  input: "save/Const"
  input: "save/RestoreV2_8/tensor_names"
  input: "save/RestoreV2_8/shape_and_slices"
  attr {
    key: "dtypes"
    value {
      list {
        type: DT_FLOAT
      }
    }
  }
}
node {
  name: "save/Assign_8"
  op: "Assign"
  input: "block2_conv1/bias"
  input: "save/RestoreV2_8"
  attr {
    key: "T"
    value {
      type: DT_FLOAT
    }
  }
  attr {
    key: "_class"
    value {
      list {
        s: "loc:@block2_conv1/bias"
      }
    }
  }
  attr {
    key: "use_locking"
    value {
      b: true
    }
  }
  attr {
    key: "validate_shape"
    value {
      b: true
    }
  }
}
node {
  name: "save/RestoreV2_9/tensor_names"
  op: "Const"
  attr {
    key: "dtype"
    value {
      type: DT_STRING
    }
  }
  attr {
    key: "value"
    value {
      tensor {
        dtype: DT_STRING
        tensor_shape {
          dim {
            size: 1
          }
        }
        string_val: "block2_conv1/kernel"
      }
    }
  }
}
node {
  name: "save/RestoreV2_9/shape_and_slices"
  op: "Const"
  attr {
    key: "dtype"
    value {
      type: DT_STRING
    }
  }
  attr {
    key: "value"
    value {
      tensor {
        dtype: DT_STRING
        tensor_shape {
          dim {
            size: 1
          }
        }
        string_val: ""
      }
    }
  }
}
node {
  name: "save/RestoreV2_9"
  op: "RestoreV2"
  input: "save/Const"
  input: "save/RestoreV2_9/tensor_names"
  input: "save/RestoreV2_9/shape_and_slices"
  attr {
    key: "dtypes"
    value {
      list {
        type: DT_FLOAT
      }
    }
  }
}
node {
  name: "save/Assign_9"
  op: "Assign"
  input: "block2_conv1/kernel"
  input: "save/RestoreV2_9"
  attr {
    key: "T"
    value {
      type: DT_FLOAT
    }
  }
  attr {
    key: "_class"
    value {
      list {
        s: "loc:@block2_conv1/kernel"
      }
    }
  }
  attr {
    key: "use_locking"
    value {
      b: true
    }
  }
  attr {
    key: "validate_shape"
    value {
      b: true
    }
  }
}
node {
  name: "save/RestoreV2_10/tensor_names"
  op: "Const"
  attr {
    key: "dtype"
    value {
      type: DT_STRING
    }
  }
  attr {
    key: "value"
    value {
      tensor {
        dtype: DT_STRING
        tensor_shape {
          dim {
            size: 1
          }
        }
        string_val: "block2_conv2/bias"
      }
    }
  }
}
node {
  name: "save/RestoreV2_10/shape_and_slices"
  op: "Const"
  attr {
    key: "dtype"
    value {
      type: DT_STRING
    }
  }
  attr {
    key: "value"
    value {
      tensor {
        dtype: DT_STRING
        tensor_shape {
          dim {
            size: 1
          }
        }
        string_val: ""
      }
    }
  }
}
node {
  name: "save/RestoreV2_10"
  op: "RestoreV2"
  input: "save/Const"
  input: "save/RestoreV2_10/tensor_names"
  input: "save/RestoreV2_10/shape_and_slices"
  attr {
    key: "dtypes"
    value {
      list {
        type: DT_FLOAT
      }
    }
  }
}
node {
  name: "save/Assign_10"
  op: "Assign"
  input: "block2_conv2/bias"
  input: "save/RestoreV2_10"
  attr {
    key: "T"
    value {
      type: DT_FLOAT
    }
  }
  attr {
    key: "_class"
    value {
      list {
        s: "loc:@block2_conv2/bias"
      }
    }
  }
  attr {
    key: "use_locking"
    value {
      b: true
    }
  }
  attr {
    key: "validate_shape"
    value {
      b: true
    }
  }
}
node {
  name: "save/RestoreV2_11/tensor_names"
  op: "Const"
  attr {
    key: "dtype"
    value {
      type: DT_STRING
    }
  }
  attr {
    key: "value"
    value {
      tensor {
        dtype: DT_STRING
        tensor_shape {
          dim {
            size: 1
          }
        }
        string_val: "block2_conv2/kernel"
      }
    }
  }
}
node {
  name: "save/RestoreV2_11/shape_and_slices"
  op: "Const"
  attr {
    key: "dtype"
    value {
      type: DT_STRING
    }
  }
  attr {
    key: "value"
    value {
      tensor {
        dtype: DT_STRING
        tensor_shape {
          dim {
            size: 1
          }
        }
        string_val: ""
      }
    }
  }
}
node {
  name: "save/RestoreV2_11"
  op: "RestoreV2"
  input: "save/Const"
  input: "save/RestoreV2_11/tensor_names"
  input: "save/RestoreV2_11/shape_and_slices"
  attr {
    key: "dtypes"
    value {
      list {
        type: DT_FLOAT
      }
    }
  }
}
node {
  name: "save/Assign_11"
  op: "Assign"
  input: "block2_conv2/kernel"
  input: "save/RestoreV2_11"
  attr {
    key: "T"
    value {
      type: DT_FLOAT
    }
  }
  attr {
    key: "_class"
    value {
      list {
        s: "loc:@block2_conv2/kernel"
      }
    }
  }
  attr {
    key: "use_locking"
    value {
      b: true
    }
  }
  attr {
    key: "validate_shape"
    value {
      b: true
    }
  }
}
node {
  name: "save/RestoreV2_12/tensor_names"
  op: "Const"
  attr {
    key: "dtype"
    value {
      type: DT_STRING
    }
  }
  attr {
    key: "value"
    value {
      tensor {
        dtype: DT_STRING
        tensor_shape {
          dim {
            size: 1
          }
        }
        string_val: "block3_conv1/bias"
      }
    }
  }
}
node {
  name: "save/RestoreV2_12/shape_and_slices"
  op: "Const"
  attr {
    key: "dtype"
    value {
      type: DT_STRING
    }
  }
  attr {
    key: "value"
    value {
      tensor {
        dtype: DT_STRING
        tensor_shape {
          dim {
            size: 1
          }
        }
        string_val: ""
      }
    }
  }
}
node {
  name: "save/RestoreV2_12"
  op: "RestoreV2"
  input: "save/Const"
  input: "save/RestoreV2_12/tensor_names"
  input: "save/RestoreV2_12/shape_and_slices"
  attr {
    key: "dtypes"
    value {
      list {
        type: DT_FLOAT
      }
    }
  }
}
node {
  name: "save/Assign_12"
  op: "Assign"
  input: "block3_conv1/bias"
  input: "save/RestoreV2_12"
  attr {
    key: "T"
    value {
      type: DT_FLOAT
    }
  }
  attr {
    key: "_class"
    value {
      list {
        s: "loc:@block3_conv1/bias"
      }
    }
  }
  attr {
    key: "use_locking"
    value {
      b: true
    }
  }
  attr {
    key: "validate_shape"
    value {
      b: true
    }
  }
}
node {
  name: "save/RestoreV2_13/tensor_names"
  op: "Const"
  attr {
    key: "dtype"
    value {
      type: DT_STRING
    }
  }
  attr {
    key: "value"
    value {
      tensor {
        dtype: DT_STRING
        tensor_shape {
          dim {
            size: 1
          }
        }
        string_val: "block3_conv1/kernel"
      }
    }
  }
}
node {
  name: "save/RestoreV2_13/shape_and_slices"
  op: "Const"
  attr {
    key: "dtype"
    value {
      type: DT_STRING
    }
  }
  attr {
    key: "value"
    value {
      tensor {
        dtype: DT_STRING
        tensor_shape {
          dim {
            size: 1
          }
        }
        string_val: ""
      }
    }
  }
}
node {
  name: "save/RestoreV2_13"
  op: "RestoreV2"
  input: "save/Const"
  input: "save/RestoreV2_13/tensor_names"
  input: "save/RestoreV2_13/shape_and_slices"
  attr {
    key: "dtypes"
    value {
      list {
        type: DT_FLOAT
      }
    }
  }
}
node {
  name: "save/Assign_13"
  op: "Assign"
  input: "block3_conv1/kernel"
  input: "save/RestoreV2_13"
  attr {
    key: "T"
    value {
      type: DT_FLOAT
    }
  }
  attr {
    key: "_class"
    value {
      list {
        s: "loc:@block3_conv1/kernel"
      }
    }
  }
  attr {
    key: "use_locking"
    value {
      b: true
    }
  }
  attr {
    key: "validate_shape"
    value {
      b: true
    }
  }
}
node {
  name: "save/RestoreV2_14/tensor_names"
  op: "Const"
  attr {
    key: "dtype"
    value {
      type: DT_STRING
    }
  }
  attr {
    key: "value"
    value {
      tensor {
        dtype: DT_STRING
        tensor_shape {
          dim {
            size: 1
          }
        }
        string_val: "block3_conv2/bias"
      }
    }
  }
}
node {
  name: "save/RestoreV2_14/shape_and_slices"
  op: "Const"
  attr {
    key: "dtype"
    value {
      type: DT_STRING
    }
  }
  attr {
    key: "value"
    value {
      tensor {
        dtype: DT_STRING
        tensor_shape {
          dim {
            size: 1
          }
        }
        string_val: ""
      }
    }
  }
}
node {
  name: "save/RestoreV2_14"
  op: "RestoreV2"
  input: "save/Const"
  input: "save/RestoreV2_14/tensor_names"
  input: "save/RestoreV2_14/shape_and_slices"
  attr {
    key: "dtypes"
    value {
      list {
        type: DT_FLOAT
      }
    }
  }
}
node {
  name: "save/Assign_14"
  op: "Assign"
  input: "block3_conv2/bias"
  input: "save/RestoreV2_14"
  attr {
    key: "T"
    value {
      type: DT_FLOAT
    }
  }
  attr {
    key: "_class"
    value {
      list {
        s: "loc:@block3_conv2/bias"
      }
    }
  }
  attr {
    key: "use_locking"
    value {
      b: true
    }
  }
  attr {
    key: "validate_shape"
    value {
      b: true
    }
  }
}
node {
  name: "save/RestoreV2_15/tensor_names"
  op: "Const"
  attr {
    key: "dtype"
    value {
      type: DT_STRING
    }
  }
  attr {
    key: "value"
    value {
      tensor {
        dtype: DT_STRING
        tensor_shape {
          dim {
            size: 1
          }
        }
        string_val: "block3_conv2/kernel"
      }
    }
  }
}
node {
  name: "save/RestoreV2_15/shape_and_slices"
  op: "Const"
  attr {
    key: "dtype"
    value {
      type: DT_STRING
    }
  }
  attr {
    key: "value"
    value {
      tensor {
        dtype: DT_STRING
        tensor_shape {
          dim {
            size: 1
          }
        }
        string_val: ""
      }
    }
  }
}
node {
  name: "save/RestoreV2_15"
  op: "RestoreV2"
  input: "save/Const"
  input: "save/RestoreV2_15/tensor_names"
  input: "save/RestoreV2_15/shape_and_slices"
  attr {
    key: "dtypes"
    value {
      list {
        type: DT_FLOAT
      }
    }
  }
}
node {
  name: "save/Assign_15"
  op: "Assign"
  input: "block3_conv2/kernel"
  input: "save/RestoreV2_15"
  attr {
    key: "T"
    value {
      type: DT_FLOAT
    }
  }
  attr {
    key: "_class"
    value {
      list {
        s: "loc:@block3_conv2/kernel"
      }
    }
  }
  attr {
    key: "use_locking"
    value {
      b: true
    }
  }
  attr {
    key: "validate_shape"
    value {
      b: true
    }
  }
}
node {
  name: "save/RestoreV2_16/tensor_names"
  op: "Const"
  attr {
    key: "dtype"
    value {
      type: DT_STRING
    }
  }
  attr {
    key: "value"
    value {
      tensor {
        dtype: DT_STRING
        tensor_shape {
          dim {
            size: 1
          }
        }
        string_val: "block3_conv3/bias"
      }
    }
  }
}
node {
  name: "save/RestoreV2_16/shape_and_slices"
  op: "Const"
  attr {
    key: "dtype"
    value {
      type: DT_STRING
    }
  }
  attr {
    key: "value"
    value {
      tensor {
        dtype: DT_STRING
        tensor_shape {
          dim {
            size: 1
          }
        }
        string_val: ""
      }
    }
  }
}
node {
  name: "save/RestoreV2_16"
  op: "RestoreV2"
  input: "save/Const"
  input: "save/RestoreV2_16/tensor_names"
  input: "save/RestoreV2_16/shape_and_slices"
  attr {
    key: "dtypes"
    value {
      list {
        type: DT_FLOAT
      }
    }
  }
}
node {
  name: "save/Assign_16"
  op: "Assign"
  input: "block3_conv3/bias"
  input: "save/RestoreV2_16"
  attr {
    key: "T"
    value {
      type: DT_FLOAT
    }
  }
  attr {
    key: "_class"
    value {
      list {
        s: "loc:@block3_conv3/bias"
      }
    }
  }
  attr {
    key: "use_locking"
    value {
      b: true
    }
  }
  attr {
    key: "validate_shape"
    value {
      b: true
    }
  }
}
node {
  name: "save/RestoreV2_17/tensor_names"
  op: "Const"
  attr {
    key: "dtype"
    value {
      type: DT_STRING
    }
  }
  attr {
    key: "value"
    value {
      tensor {
        dtype: DT_STRING
        tensor_shape {
          dim {
            size: 1
          }
        }
        string_val: "block3_conv3/kernel"
      }
    }
  }
}
node {
  name: "save/RestoreV2_17/shape_and_slices"
  op: "Const"
  attr {
    key: "dtype"
    value {
      type: DT_STRING
    }
  }
  attr {
    key: "value"
    value {
      tensor {
        dtype: DT_STRING
        tensor_shape {
          dim {
            size: 1
          }
        }
        string_val: ""
      }
    }
  }
}
node {
  name: "save/RestoreV2_17"
  op: "RestoreV2"
  input: "save/Const"
  input: "save/RestoreV2_17/tensor_names"
  input: "save/RestoreV2_17/shape_and_slices"
  attr {
    key: "dtypes"
    value {
      list {
        type: DT_FLOAT
      }
    }
  }
}
node {
  name: "save/Assign_17"
  op: "Assign"
  input: "block3_conv3/kernel"
  input: "save/RestoreV2_17"
  attr {
    key: "T"
    value {
      type: DT_FLOAT
    }
  }
  attr {
    key: "_class"
    value {
      list {
        s: "loc:@block3_conv3/kernel"
      }
    }
  }
  attr {
    key: "use_locking"
    value {
      b: true
    }
  }
  attr {
    key: "validate_shape"
    value {
      b: true
    }
  }
}
node {
  name: "save/RestoreV2_18/tensor_names"
  op: "Const"
  attr {
    key: "dtype"
    value {
      type: DT_STRING
    }
  }
  attr {
    key: "value"
    value {
      tensor {
        dtype: DT_STRING
        tensor_shape {
          dim {
            size: 1
          }
        }
        string_val: "block4_conv1/bias"
      }
    }
  }
}
node {
  name: "save/RestoreV2_18/shape_and_slices"
  op: "Const"
  attr {
    key: "dtype"
    value {
      type: DT_STRING
    }
  }
  attr {
    key: "value"
    value {
      tensor {
        dtype: DT_STRING
        tensor_shape {
          dim {
            size: 1
          }
        }
        string_val: ""
      }
    }
  }
}
node {
  name: "save/RestoreV2_18"
  op: "RestoreV2"
  input: "save/Const"
  input: "save/RestoreV2_18/tensor_names"
  input: "save/RestoreV2_18/shape_and_slices"
  attr {
    key: "dtypes"
    value {
      list {
        type: DT_FLOAT
      }
    }
  }
}
node {
  name: "save/Assign_18"
  op: "Assign"
  input: "block4_conv1/bias"
  input: "save/RestoreV2_18"
  attr {
    key: "T"
    value {
      type: DT_FLOAT
    }
  }
  attr {
    key: "_class"
    value {
      list {
        s: "loc:@block4_conv1/bias"
      }
    }
  }
  attr {
    key: "use_locking"
    value {
      b: true
    }
  }
  attr {
    key: "validate_shape"
    value {
      b: true
    }
  }
}
node {
  name: "save/RestoreV2_19/tensor_names"
  op: "Const"
  attr {
    key: "dtype"
    value {
      type: DT_STRING
    }
  }
  attr {
    key: "value"
    value {
      tensor {
        dtype: DT_STRING
        tensor_shape {
          dim {
            size: 1
          }
        }
        string_val: "block4_conv1/kernel"
      }
    }
  }
}
node {
  name: "save/RestoreV2_19/shape_and_slices"
  op: "Const"
  attr {
    key: "dtype"
    value {
      type: DT_STRING
    }
  }
  attr {
    key: "value"
    value {
      tensor {
        dtype: DT_STRING
        tensor_shape {
          dim {
            size: 1
          }
        }
        string_val: ""
      }
    }
  }
}
node {
  name: "save/RestoreV2_19"
  op: "RestoreV2"
  input: "save/Const"
  input: "save/RestoreV2_19/tensor_names"
  input: "save/RestoreV2_19/shape_and_slices"
  attr {
    key: "dtypes"
    value {
      list {
        type: DT_FLOAT
      }
    }
  }
}
node {
  name: "save/Assign_19"
  op: "Assign"
  input: "block4_conv1/kernel"
  input: "save/RestoreV2_19"
  attr {
    key: "T"
    value {
      type: DT_FLOAT
    }
  }
  attr {
    key: "_class"
    value {
      list {
        s: "loc:@block4_conv1/kernel"
      }
    }
  }
  attr {
    key: "use_locking"
    value {
      b: true
    }
  }
  attr {
    key: "validate_shape"
    value {
      b: true
    }
  }
}
node {
  name: "save/RestoreV2_20/tensor_names"
  op: "Const"
  attr {
    key: "dtype"
    value {
      type: DT_STRING
    }
  }
  attr {
    key: "value"
    value {
      tensor {
        dtype: DT_STRING
        tensor_shape {
          dim {
            size: 1
          }
        }
        string_val: "block4_conv2/bias"
      }
    }
  }
}
node {
  name: "save/RestoreV2_20/shape_and_slices"
  op: "Const"
  attr {
    key: "dtype"
    value {
      type: DT_STRING
    }
  }
  attr {
    key: "value"
    value {
      tensor {
        dtype: DT_STRING
        tensor_shape {
          dim {
            size: 1
          }
        }
        string_val: ""
      }
    }
  }
}
node {
  name: "save/RestoreV2_20"
  op: "RestoreV2"
  input: "save/Const"
  input: "save/RestoreV2_20/tensor_names"
  input: "save/RestoreV2_20/shape_and_slices"
  attr {
    key: "dtypes"
    value {
      list {
        type: DT_FLOAT
      }
    }
  }
}
node {
  name: "save/Assign_20"
  op: "Assign"
  input: "block4_conv2/bias"
  input: "save/RestoreV2_20"
  attr {
    key: "T"
    value {
      type: DT_FLOAT
    }
  }
  attr {
    key: "_class"
    value {
      list {
        s: "loc:@block4_conv2/bias"
      }
    }
  }
  attr {
    key: "use_locking"
    value {
      b: true
    }
  }
  attr {
    key: "validate_shape"
    value {
      b: true
    }
  }
}
node {
  name: "save/RestoreV2_21/tensor_names"
  op: "Const"
  attr {
    key: "dtype"
    value {
      type: DT_STRING
    }
  }
  attr {
    key: "value"
    value {
      tensor {
        dtype: DT_STRING
        tensor_shape {
          dim {
            size: 1
          }
        }
        string_val: "block4_conv2/kernel"
      }
    }
  }
}
node {
  name: "save/RestoreV2_21/shape_and_slices"
  op: "Const"
  attr {
    key: "dtype"
    value {
      type: DT_STRING
    }
  }
  attr {
    key: "value"
    value {
      tensor {
        dtype: DT_STRING
        tensor_shape {
          dim {
            size: 1
          }
        }
        string_val: ""
      }
    }
  }
}
node {
  name: "save/RestoreV2_21"
  op: "RestoreV2"
  input: "save/Const"
  input: "save/RestoreV2_21/tensor_names"
  input: "save/RestoreV2_21/shape_and_slices"
  attr {
    key: "dtypes"
    value {
      list {
        type: DT_FLOAT
      }
    }
  }
}
node {
  name: "save/Assign_21"
  op: "Assign"
  input: "block4_conv2/kernel"
  input: "save/RestoreV2_21"
  attr {
    key: "T"
    value {
      type: DT_FLOAT
    }
  }
  attr {
    key: "_class"
    value {
      list {
        s: "loc:@block4_conv2/kernel"
      }
    }
  }
  attr {
    key: "use_locking"
    value {
      b: true
    }
  }
  attr {
    key: "validate_shape"
    value {
      b: true
    }
  }
}
node {
  name: "save/RestoreV2_22/tensor_names"
  op: "Const"
  attr {
    key: "dtype"
    value {
      type: DT_STRING
    }
  }
  attr {
    key: "value"
    value {
      tensor {
        dtype: DT_STRING
        tensor_shape {
          dim {
            size: 1
          }
        }
        string_val: "block4_conv3/bias"
      }
    }
  }
}
node {
  name: "save/RestoreV2_22/shape_and_slices"
  op: "Const"
  attr {
    key: "dtype"
    value {
      type: DT_STRING
    }
  }
  attr {
    key: "value"
    value {
      tensor {
        dtype: DT_STRING
        tensor_shape {
          dim {
            size: 1
          }
        }
        string_val: ""
      }
    }
  }
}
node {
  name: "save/RestoreV2_22"
  op: "RestoreV2"
  input: "save/Const"
  input: "save/RestoreV2_22/tensor_names"
  input: "save/RestoreV2_22/shape_and_slices"
  attr {
    key: "dtypes"
    value {
      list {
        type: DT_FLOAT
      }
    }
  }
}
node {
  name: "save/Assign_22"
  op: "Assign"
  input: "block4_conv3/bias"
  input: "save/RestoreV2_22"
  attr {
    key: "T"
    value {
      type: DT_FLOAT
    }
  }
  attr {
    key: "_class"
    value {
      list {
        s: "loc:@block4_conv3/bias"
      }
    }
  }
  attr {
    key: "use_locking"
    value {
      b: true
    }
  }
  attr {
    key: "validate_shape"
    value {
      b: true
    }
  }
}
node {
  name: "save/RestoreV2_23/tensor_names"
  op: "Const"
  attr {
    key: "dtype"
    value {
      type: DT_STRING
    }
  }
  attr {
    key: "value"
    value {
      tensor {
        dtype: DT_STRING
        tensor_shape {
          dim {
            size: 1
          }
        }
        string_val: "block4_conv3/kernel"
      }
    }
  }
}
node {
  name: "save/RestoreV2_23/shape_and_slices"
  op: "Const"
  attr {
    key: "dtype"
    value {
      type: DT_STRING
    }
  }
  attr {
    key: "value"
    value {
      tensor {
        dtype: DT_STRING
        tensor_shape {
          dim {
            size: 1
          }
        }
        string_val: ""
      }
    }
  }
}
node {
  name: "save/RestoreV2_23"
  op: "RestoreV2"
  input: "save/Const"
  input: "save/RestoreV2_23/tensor_names"
  input: "save/RestoreV2_23/shape_and_slices"
  attr {
    key: "dtypes"
    value {
      list {
        type: DT_FLOAT
      }
    }
  }
}
node {
  name: "save/Assign_23"
  op: "Assign"
  input: "block4_conv3/kernel"
  input: "save/RestoreV2_23"
  attr {
    key: "T"
    value {
      type: DT_FLOAT
    }
  }
  attr {
    key: "_class"
    value {
      list {
        s: "loc:@block4_conv3/kernel"
      }
    }
  }
  attr {
    key: "use_locking"
    value {
      b: true
    }
  }
  attr {
    key: "validate_shape"
    value {
      b: true
    }
  }
}
node {
  name: "save/RestoreV2_24/tensor_names"
  op: "Const"
  attr {
    key: "dtype"
    value {
      type: DT_STRING
    }
  }
  attr {
    key: "value"
    value {
      tensor {
        dtype: DT_STRING
        tensor_shape {
          dim {
            size: 1
          }
        }
        string_val: "block5_conv1/bias"
      }
    }
  }
}
node {
  name: "save/RestoreV2_24/shape_and_slices"
  op: "Const"
  attr {
    key: "dtype"
    value {
      type: DT_STRING
    }
  }
  attr {
    key: "value"
    value {
      tensor {
        dtype: DT_STRING
        tensor_shape {
          dim {
            size: 1
          }
        }
        string_val: ""
      }
    }
  }
}
node {
  name: "save/RestoreV2_24"
  op: "RestoreV2"
  input: "save/Const"
  input: "save/RestoreV2_24/tensor_names"
  input: "save/RestoreV2_24/shape_and_slices"
  attr {
    key: "dtypes"
    value {
      list {
        type: DT_FLOAT
      }
    }
  }
}
node {
  name: "save/Assign_24"
  op: "Assign"
  input: "block5_conv1/bias"
  input: "save/RestoreV2_24"
  attr {
    key: "T"
    value {
      type: DT_FLOAT
    }
  }
  attr {
    key: "_class"
    value {
      list {
        s: "loc:@block5_conv1/bias"
      }
    }
  }
  attr {
    key: "use_locking"
    value {
      b: true
    }
  }
  attr {
    key: "validate_shape"
    value {
      b: true
    }
  }
}
node {
  name: "save/RestoreV2_25/tensor_names"
  op: "Const"
  attr {
    key: "dtype"
    value {
      type: DT_STRING
    }
  }
  attr {
    key: "value"
    value {
      tensor {
        dtype: DT_STRING
        tensor_shape {
          dim {
            size: 1
          }
        }
        string_val: "block5_conv1/kernel"
      }
    }
  }
}
node {
  name: "save/RestoreV2_25/shape_and_slices"
  op: "Const"
  attr {
    key: "dtype"
    value {
      type: DT_STRING
    }
  }
  attr {
    key: "value"
    value {
      tensor {
        dtype: DT_STRING
        tensor_shape {
          dim {
            size: 1
          }
        }
        string_val: ""
      }
    }
  }
}
node {
  name: "save/RestoreV2_25"
  op: "RestoreV2"
  input: "save/Const"
  input: "save/RestoreV2_25/tensor_names"
  input: "save/RestoreV2_25/shape_and_slices"
  attr {
    key: "dtypes"
    value {
      list {
        type: DT_FLOAT
      }
    }
  }
}
node {
  name: "save/Assign_25"
  op: "Assign"
  input: "block5_conv1/kernel"
  input: "save/RestoreV2_25"
  attr {
    key: "T"
    value {
      type: DT_FLOAT
    }
  }
  attr {
    key: "_class"
    value {
      list {
        s: "loc:@block5_conv1/kernel"
      }
    }
  }
  attr {
    key: "use_locking"
    value {
      b: true
    }
  }
  attr {
    key: "validate_shape"
    value {
      b: true
    }
  }
}
node {
  name: "save/RestoreV2_26/tensor_names"
  op: "Const"
  attr {
    key: "dtype"
    value {
      type: DT_STRING
    }
  }
  attr {
    key: "value"
    value {
      tensor {
        dtype: DT_STRING
        tensor_shape {
          dim {
            size: 1
          }
        }
        string_val: "block5_conv2/bias"
      }
    }
  }
}
node {
  name: "save/RestoreV2_26/shape_and_slices"
  op: "Const"
  attr {
    key: "dtype"
    value {
      type: DT_STRING
    }
  }
  attr {
    key: "value"
    value {
      tensor {
        dtype: DT_STRING
        tensor_shape {
          dim {
            size: 1
          }
        }
        string_val: ""
      }
    }
  }
}
node {
  name: "save/RestoreV2_26"
  op: "RestoreV2"
  input: "save/Const"
  input: "save/RestoreV2_26/tensor_names"
  input: "save/RestoreV2_26/shape_and_slices"
  attr {
    key: "dtypes"
    value {
      list {
        type: DT_FLOAT
      }
    }
  }
}
node {
  name: "save/Assign_26"
  op: "Assign"
  input: "block5_conv2/bias"
  input: "save/RestoreV2_26"
  attr {
    key: "T"
    value {
      type: DT_FLOAT
    }
  }
  attr {
    key: "_class"
    value {
      list {
        s: "loc:@block5_conv2/bias"
      }
    }
  }
  attr {
    key: "use_locking"
    value {
      b: true
    }
  }
  attr {
    key: "validate_shape"
    value {
      b: true
    }
  }
}
node {
  name: "save/RestoreV2_27/tensor_names"
  op: "Const"
  attr {
    key: "dtype"
    value {
      type: DT_STRING
    }
  }
  attr {
    key: "value"
    value {
      tensor {
        dtype: DT_STRING
        tensor_shape {
          dim {
            size: 1
          }
        }
        string_val: "block5_conv2/kernel"
      }
    }
  }
}
node {
  name: "save/RestoreV2_27/shape_and_slices"
  op: "Const"
  attr {
    key: "dtype"
    value {
      type: DT_STRING
    }
  }
  attr {
    key: "value"
    value {
      tensor {
        dtype: DT_STRING
        tensor_shape {
          dim {
            size: 1
          }
        }
        string_val: ""
      }
    }
  }
}
node {
  name: "save/RestoreV2_27"
  op: "RestoreV2"
  input: "save/Const"
  input: "save/RestoreV2_27/tensor_names"
  input: "save/RestoreV2_27/shape_and_slices"
  attr {
    key: "dtypes"
    value {
      list {
        type: DT_FLOAT
      }
    }
  }
}
node {
  name: "save/Assign_27"
  op: "Assign"
  input: "block5_conv2/kernel"
  input: "save/RestoreV2_27"
  attr {
    key: "T"
    value {
      type: DT_FLOAT
    }
  }
  attr {
    key: "_class"
    value {
      list {
        s: "loc:@block5_conv2/kernel"
      }
    }
  }
  attr {
    key: "use_locking"
    value {
      b: true
    }
  }
  attr {
    key: "validate_shape"
    value {
      b: true
    }
  }
}
node {
  name: "save/RestoreV2_28/tensor_names"
  op: "Const"
  attr {
    key: "dtype"
    value {
      type: DT_STRING
    }
  }
  attr {
    key: "value"
    value {
      tensor {
        dtype: DT_STRING
        tensor_shape {
          dim {
            size: 1
          }
        }
        string_val: "block5_conv3/bias"
      }
    }
  }
}
node {
  name: "save/RestoreV2_28/shape_and_slices"
  op: "Const"
  attr {
    key: "dtype"
    value {
      type: DT_STRING
    }
  }
  attr {
    key: "value"
    value {
      tensor {
        dtype: DT_STRING
        tensor_shape {
          dim {
            size: 1
          }
        }
        string_val: ""
      }
    }
  }
}
node {
  name: "save/RestoreV2_28"
  op: "RestoreV2"
  input: "save/Const"
  input: "save/RestoreV2_28/tensor_names"
  input: "save/RestoreV2_28/shape_and_slices"
  attr {
    key: "dtypes"
    value {
      list {
        type: DT_FLOAT
      }
    }
  }
}
node {
  name: "save/Assign_28"
  op: "Assign"
  input: "block5_conv3/bias"
  input: "save/RestoreV2_28"
  attr {
    key: "T"
    value {
      type: DT_FLOAT
    }
  }
  attr {
    key: "_class"
    value {
      list {
        s: "loc:@block5_conv3/bias"
      }
    }
  }
  attr {
    key: "use_locking"
    value {
      b: true
    }
  }
  attr {
    key: "validate_shape"
    value {
      b: true
    }
  }
}
node {
  name: "save/RestoreV2_29/tensor_names"
  op: "Const"
  attr {
    key: "dtype"
    value {
      type: DT_STRING
    }
  }
  attr {
    key: "value"
    value {
      tensor {
        dtype: DT_STRING
        tensor_shape {
          dim {
            size: 1
          }
        }
        string_val: "block5_conv3/kernel"
      }
    }
  }
}
node {
  name: "save/RestoreV2_29/shape_and_slices"
  op: "Const"
  attr {
    key: "dtype"
    value {
      type: DT_STRING
    }
  }
  attr {
    key: "value"
    value {
      tensor {
        dtype: DT_STRING
        tensor_shape {
          dim {
            size: 1
          }
        }
        string_val: ""
      }
    }
  }
}
node {
  name: "save/RestoreV2_29"
  op: "RestoreV2"
  input: "save/Const"
  input: "save/RestoreV2_29/tensor_names"
  input: "save/RestoreV2_29/shape_and_slices"
  attr {
    key: "dtypes"
    value {
      list {
        type: DT_FLOAT
      }
    }
  }
}
node {
  name: "save/Assign_29"
  op: "Assign"
  input: "block5_conv3/kernel"
  input: "save/RestoreV2_29"
  attr {
    key: "T"
    value {
      type: DT_FLOAT
    }
  }
  attr {
    key: "_class"
    value {
      list {
        s: "loc:@block5_conv3/kernel"
      }
    }
  }
  attr {
    key: "use_locking"
    value {
      b: true
    }
  }
  attr {
    key: "validate_shape"
    value {
      b: true
    }
  }
}
node {
  name: "save/RestoreV2_30/tensor_names"
  op: "Const"
  attr {
    key: "dtype"
    value {
      type: DT_STRING
    }
  }
  attr {
    key: "value"
    value {
      tensor {
        dtype: DT_STRING
        tensor_shape {
          dim {
            size: 1
          }
        }
        string_val: "dense_1/bias"
      }
    }
  }
}
node {
  name: "save/RestoreV2_30/shape_and_slices"
  op: "Const"
  attr {
    key: "dtype"
    value {
      type: DT_STRING
    }
  }
  attr {
    key: "value"
    value {
      tensor {
        dtype: DT_STRING
        tensor_shape {
          dim {
            size: 1
          }
        }
        string_val: ""
      }
    }
  }
}
node {
  name: "save/RestoreV2_30"
  op: "RestoreV2"
  input: "save/Const"
  input: "save/RestoreV2_30/tensor_names"
  input: "save/RestoreV2_30/shape_and_slices"
  attr {
    key: "dtypes"
    value {
      list {
        type: DT_FLOAT
      }
    }
  }
}
node {
  name: "save/Assign_30"
  op: "Assign"
  input: "dense_1/bias"
  input: "save/RestoreV2_30"
  attr {
    key: "T"
    value {
      type: DT_FLOAT
    }
  }
  attr {
    key: "_class"
    value {
      list {
        s: "loc:@dense_1/bias"
      }
    }
  }
  attr {
    key: "use_locking"
    value {
      b: true
    }
  }
  attr {
    key: "validate_shape"
    value {
      b: true
    }
  }
}
node {
  name: "save/RestoreV2_31/tensor_names"
  op: "Const"
  attr {
    key: "dtype"
    value {
      type: DT_STRING
    }
  }
  attr {
    key: "value"
    value {
      tensor {
        dtype: DT_STRING
        tensor_shape {
          dim {
            size: 1
          }
        }
        string_val: "dense_1/kernel"
      }
    }
  }
}
node {
  name: "save/RestoreV2_31/shape_and_slices"
  op: "Const"
  attr {
    key: "dtype"
    value {
      type: DT_STRING
    }
  }
  attr {
    key: "value"
    value {
      tensor {
        dtype: DT_STRING
        tensor_shape {
          dim {
            size: 1
          }
        }
        string_val: ""
      }
    }
  }
}
node {
  name: "save/RestoreV2_31"
  op: "RestoreV2"
  input: "save/Const"
  input: "save/RestoreV2_31/tensor_names"
  input: "save/RestoreV2_31/shape_and_slices"
  attr {
    key: "dtypes"
    value {
      list {
        type: DT_FLOAT
      }
    }
  }
}
node {
  name: "save/Assign_31"
  op: "Assign"
  input: "dense_1/kernel"
  input: "save/RestoreV2_31"
  attr {
    key: "T"
    value {
      type: DT_FLOAT
    }
  }
  attr {
    key: "_class"
    value {
      list {
        s: "loc:@dense_1/kernel"
      }
    }
  }
  attr {
    key: "use_locking"
    value {
      b: true
    }
  }
  attr {
    key: "validate_shape"
    value {
      b: true
    }
  }
}
node {
  name: "save/RestoreV2_32/tensor_names"
  op: "Const"
  attr {
    key: "dtype"
    value {
      type: DT_STRING
    }
  }
  attr {
    key: "value"
    value {
      tensor {
        dtype: DT_STRING
        tensor_shape {
          dim {
            size: 1
          }
        }
        string_val: "dense_2/bias"
      }
    }
  }
}
node {
  name: "save/RestoreV2_32/shape_and_slices"
  op: "Const"
  attr {
    key: "dtype"
    value {
      type: DT_STRING
    }
  }
  attr {
    key: "value"
    value {
      tensor {
        dtype: DT_STRING
        tensor_shape {
          dim {
            size: 1
          }
        }
        string_val: ""
      }
    }
  }
}
node {
  name: "save/RestoreV2_32"
  op: "RestoreV2"
  input: "save/Const"
  input: "save/RestoreV2_32/tensor_names"
  input: "save/RestoreV2_32/shape_and_slices"
  attr {
    key: "dtypes"
    value {
      list {
        type: DT_FLOAT
      }
    }
  }
}
node {
  name: "save/Assign_32"
  op: "Assign"
  input: "dense_2/bias"
  input: "save/RestoreV2_32"
  attr {
    key: "T"
    value {
      type: DT_FLOAT
    }
  }
  attr {
    key: "_class"
    value {
      list {
        s: "loc:@dense_2/bias"
      }
    }
  }
  attr {
    key: "use_locking"
    value {
      b: true
    }
  }
  attr {
    key: "validate_shape"
    value {
      b: true
    }
  }
}
node {
  name: "save/RestoreV2_33/tensor_names"
  op: "Const"
  attr {
    key: "dtype"
    value {
      type: DT_STRING
    }
  }
  attr {
    key: "value"
    value {
      tensor {
        dtype: DT_STRING
        tensor_shape {
          dim {
            size: 1
          }
        }
        string_val: "dense_2/kernel"
      }
    }
  }
}
node {
  name: "save/RestoreV2_33/shape_and_slices"
  op: "Const"
  attr {
    key: "dtype"
    value {
      type: DT_STRING
    }
  }
  attr {
    key: "value"
    value {
      tensor {
        dtype: DT_STRING
        tensor_shape {
          dim {
            size: 1
          }
        }
        string_val: ""
      }
    }
  }
}
node {
  name: "save/RestoreV2_33"
  op: "RestoreV2"
  input: "save/Const"
  input: "save/RestoreV2_33/tensor_names"
  input: "save/RestoreV2_33/shape_and_slices"
  attr {
    key: "dtypes"
    value {
      list {
        type: DT_FLOAT
      }
    }
  }
}
node {
  name: "save/Assign_33"
  op: "Assign"
  input: "dense_2/kernel"
  input: "save/RestoreV2_33"
  attr {
    key: "T"
    value {
      type: DT_FLOAT
    }
  }
  attr {
    key: "_class"
    value {
      list {
        s: "loc:@dense_2/kernel"
      }
    }
  }
  attr {
    key: "use_locking"
    value {
      b: true
    }
  }
  attr {
    key: "validate_shape"
    value {
      b: true
    }
  }
}
node {
  name: "save/RestoreV2_34/tensor_names"
  op: "Const"
  attr {
    key: "dtype"
    value {
      type: DT_STRING
    }
  }
  attr {
    key: "value"
    value {
      tensor {
        dtype: DT_STRING
        tensor_shape {
          dim {
            size: 1
          }
        }
        string_val: "dense_3/bias"
      }
    }
  }
}
node {
  name: "save/RestoreV2_34/shape_and_slices"
  op: "Const"
  attr {
    key: "dtype"
    value {
      type: DT_STRING
    }
  }
  attr {
    key: "value"
    value {
      tensor {
        dtype: DT_STRING
        tensor_shape {
          dim {
            size: 1
          }
        }
        string_val: ""
      }
    }
  }
}
node {
  name: "save/RestoreV2_34"
  op: "RestoreV2"
  input: "save/Const"
  input: "save/RestoreV2_34/tensor_names"
  input: "save/RestoreV2_34/shape_and_slices"
  attr {
    key: "dtypes"
    value {
      list {
        type: DT_FLOAT
      }
    }
  }
}
node {
  name: "save/Assign_34"
  op: "Assign"
  input: "dense_3/bias"
  input: "save/RestoreV2_34"
  attr {
    key: "T"
    value {
      type: DT_FLOAT
    }
  }
  attr {
    key: "_class"
    value {
      list {
        s: "loc:@dense_3/bias"
      }
    }
  }
  attr {
    key: "use_locking"
    value {
      b: true
    }
  }
  attr {
    key: "validate_shape"
    value {
      b: true
    }
  }
}
node {
  name: "save/RestoreV2_35/tensor_names"
  op: "Const"
  attr {
    key: "dtype"
    value {
      type: DT_STRING
    }
  }
  attr {
    key: "value"
    value {
      tensor {
        dtype: DT_STRING
        tensor_shape {
          dim {
            size: 1
          }
        }
        string_val: "dense_3/kernel"
      }
    }
  }
}
node {
  name: "save/RestoreV2_35/shape_and_slices"
  op: "Const"
  attr {
    key: "dtype"
    value {
      type: DT_STRING
    }
  }
  attr {
    key: "value"
    value {
      tensor {
        dtype: DT_STRING
        tensor_shape {
          dim {
            size: 1
          }
        }
        string_val: ""
      }
    }
  }
}
node {
  name: "save/RestoreV2_35"
  op: "RestoreV2"
  input: "save/Const"
  input: "save/RestoreV2_35/tensor_names"
  input: "save/RestoreV2_35/shape_and_slices"
  attr {
    key: "dtypes"
    value {
      list {
        type: DT_FLOAT
      }
    }
  }
}
node {
  name: "save/Assign_35"
  op: "Assign"
  input: "dense_3/kernel"
  input: "save/RestoreV2_35"
  attr {
    key: "T"
    value {
      type: DT_FLOAT
    }
  }
  attr {
    key: "_class"
    value {
      list {
        s: "loc:@dense_3/kernel"
      }
    }
  }
  attr {
    key: "use_locking"
    value {
      b: true
    }
  }
  attr {
    key: "validate_shape"
    value {
      b: true
    }
  }
}
node {
  name: "save/restore_all"
  op: "NoOp"
  input: "^save/Assign"
  input: "^save/Assign_1"
  input: "^save/Assign_2"
  input: "^save/Assign_3"
  input: "^save/Assign_4"
  input: "^save/Assign_5"
  input: "^save/Assign_6"
  input: "^save/Assign_7"
  input: "^save/Assign_8"
  input: "^save/Assign_9"
  input: "^save/Assign_10"
  input: "^save/Assign_11"
  input: "^save/Assign_12"
  input: "^save/Assign_13"
  input: "^save/Assign_14"
  input: "^save/Assign_15"
  input: "^save/Assign_16"
  input: "^save/Assign_17"
  input: "^save/Assign_18"
  input: "^save/Assign_19"
  input: "^save/Assign_20"
  input: "^save/Assign_21"
  input: "^save/Assign_22"
  input: "^save/Assign_23"
  input: "^save/Assign_24"
  input: "^save/Assign_25"
  input: "^save/Assign_26"
  input: "^save/Assign_27"
  input: "^save/Assign_28"
  input: "^save/Assign_29"
  input: "^save/Assign_30"
  input: "^save/Assign_31"
  input: "^save/Assign_32"
  input: "^save/Assign_33"
  input: "^save/Assign_34"
  input: "^save/Assign_35"
}
node {
  name: "init_1"
  op: "NoOp"
  input: "^dense_1/kernel/Assign"
  input: "^dense_1/bias/Assign"
  input: "^dense_2/kernel/Assign"
  input: "^dense_2/bias/Assign"
  input: "^dense_3/kernel/Assign"
  input: "^dense_3/bias/Assign"
  input: "^SGD/iterations/Assign"
  input: "^SGD/lr/Assign"
  input: "^SGD/momentum/Assign"
  input: "^SGD/decay/Assign"
}
versions {
  producer: 24
}